system/models/MNIST/FedAvg_Quanv_MNIST_server.pt (torch, 171010 bytes, 22 tensors)

cnn_layers.0.weight f4 [64, 1, 3, 3]
00000000: 54b7 92bb d5b5 333e 8538 9cbe 212c 87be
00000010: f863 06be 906f b73d 0ca2 cb3c e567 a73e
00000020: 8fb0 473b 09c6 a13d 083d fdbd 54e9 dcbd
00000030: 5a54 afbe 0f93 71be 2833 16be c86c c93c
00000040: cf22 353e 463d 7f3e 2851 a6be 0bd4 4cbe
00000050: 2fba 1f3e ee64 413e aeaf f0bd 04ee 963e
00000060: 96f5 d8bd ae8b ffbb 3710 a13e 6a31 95be
00000070: 4c93 7abe 7566 e7bd 9fbb 01be 7ac3 663e
00000080: c9d6 69be e0b2 1ebe faef 67be 2572 83be
00000090: 33fd 26be 707c bd3e 5cc9 793e 1bee 173e
000000a0: cd83 0f3d 3a5f 06be 8312 0bbb 1008 bbbe
000000b0: d132 79be 7af4 6cbe aca8 713e dcad 8b3e
000000c0: fe40 56be d391 483a d846 893e b1f3 9e3e
000000d0: 48c8 1c3e a9e0 8c3d 356d 6d3e 49bb 32be
000000e0: 89c9 c53d 8298 86be e68f 6fbe 60c7 2fbe
000000f0: fdb7 4a3e 7264 373e 2fbf 31be 5b80 dd3d
00000100: b465 433e 4ed8 d5bc b76d af3d e890 b53d
00000110: 07cb 303e 9313 c03e 2738 8ebe 9dbb 40be
00000120: 49e4 283e f514 b63e af43 b23e 4de1 a43e
00000130: 802f 5e3d f3b1 b4be 0b43 3abd 4d22 aebe
00000140: 5f11 e1be 1660 ac3e eaad 833e 0c26 cebe
00000150: 1b72 b53d 7952 91bd 9699 e9bd 068a 05be
00000160: 6c98 093e f2a3 63be f853 1a3e 0e10 5b3e
00000170: f6b4 8f3e f037 043e b0e6 b0be 8cc2 68be
00000180: e610 153e 8647 273d 1a0d 8ebe 6054 f0bd
00000190: c5b5 d13e df8b be3e 89b7 3cbe a460 cfbd
000001a0: 5085 7fbe cf46 dcbc ab8f 92be 56cd 83be
000001b0: 0c59 813c 3504 643d 7ba4 05be 746b 863e
000001c0: ceaa 49be 86f0 a83e 4fa6 873e 2544 93be
000001d0: 92ba 64bd 7e76 823d 8e32 b13d 5027 bf3d
000001e0: 4600 413e e171 263d deda 2ebe 6dbf 383e
000001f0: 883f aabe 3919 53be e0b9 a5bd 9dba 04be
00000200: 5ab4 c2bc ca95 97be a31f 83bd 51d4 283e
00000210: 18fb 63be 30eb fc3b 0407 ab3e da82 7cbd
00000220: 4472 333c c7d5 a2bb 6c5c 863d edf1 6b3e
00000230: bef7 ab3e 3876 743e 74d3 ad3e 3c05 00bd
00000240: 1307 a7be 7fc4 19be d3d3 8b3e 78ff 19bd
00000250: 13d2 28be eae0 84be a50f 99be 4575 87be
00000260: dcb4 94bd 0935 873e 582a 723e 3576 a0be
00000270: 62db 8b3e 970e 7bbe 9ac2 9abd 2afc 95bd
00000280: 09aa 57bd ce6e 61bd 458d 9fbe 6328 81be
00000290: 26ed 053d 9162 0fbc 09fb fbbd d364 743e
000002a0: 4d14 91be 2889 783c 9f05 ca3e 24d5 29be
000002b0: 12bb b23e 30dc 283e 64d1 b2be 5274 843e
000002c0: d1a1 58bc 63ae 22be 5899 9f3e 5fb9 83be
000002d0: d18f 863d 629d 00bd 059d 953e 988e bd3d
000002e0: 4525 343e 8e27 183e 004f 1dbe 3294 f1bd
000002f0: 8bec 9ebe fea1 9f3e 7efa b13e e975 b33e
00000300: d20b 90be 4599 04bc 6c42 59be e295 92be
00000310: 11dc 91be 8ae2 2f3c d321 43be fbc3 d0bc
00000320: 3bf9 a03c 6b1b 5d3e ddde 84be fecc 4dbe
00000330: 9883 28be e97e 803e 25ab adbd 269f a23e
00000340: 4070 0b3e b4f4 533d 88a2 f7bc 623f 95bd
00000350: 2be1 563d 2e64 05be 9ae6 45bd 52d7 413d
00000360: b101 9bbe 812d 36be 5679 b33e 3092 93be
00000370: f8d6 d9bb 29d7 d53e bcfd f73d c2ad 473d
00000380: 840f 79be ccd6 b33d 90f1 bcbe bf7c 73be
00000390: 60ed 3cbe 03f3 afbd 995a b7ba 98e1 b23e
000003a0: ad2e 123e 1a4d bc3e 5093 523e 279c 6cbe
000003b0: 7cc9 043e a44e 7cbe 7629 15be 3554 d33d
000003c0: 28b2 0c3e eda6 8d3e 1ff3 cdbd 3eb3 8b3d
000003d0: 1d4d 453e c27e adbe a900 9c3e b4d6 8cbe
000003e0: 3422 0dbc 5553 e13a 3a59 1ebe 5908 5b3d
000003f0: 56e0 963e 1532 b6bd 789a 5abe 6809 fabd
-0.004477421 0.17549832 -0.3051187 -0.26400855 -0.13124073 0.08956826 0.024857543 0.32696453
0.0030470227 0.078991 -0.123651564 -0.10786691 -0.34244043 -0.23591255 -0.14667952 0.024588004
0.1768906 0.24925718 -0.32483792 -0.20002763 0.15598367 0.18886158 -0.11752258 0.29478467
-0.10593717 -0.0077986335 0.31457683 -0.29139262 -0.24470252 -0.11298839 -0.12669228 0.22535506
-0.2283584 -0.15497923 -0.22650138 -0.25673023 -0.16307525 0.37009 0.24393219 0.14836924
0.035037804 -0.13122264 -0.002122075 -0.3652959 -0.24335791 -0.23140135 0.235995 0.27281082
-0.2092323 0.0007651124 0.26811862 0.31045297 0.15310776 0.06878788 0.2318619 -0.17454256
0.096575804 -0.2628823 -0.23394737 -0.171659 0.19796748 0.1790941 -0.17358087 0.108154975
0.19081765 -0.026104119 0.08565848 0.08865529 0.17264949 0.37514934 -0.27777216 -0.18821569
0.16493334 0.35562864 0.34817263 0.3220314 0.05424452 -0.35292014 -0.045474093 -0.34010544
-0.43958566 0.33667058 0.25718623 -0.40263402 0.088596545 -0.070958085 -0.11406247 -0.13040933
0.1343705 -0.22230509 0.15071094 0.21392843 0.2806775 0.12911963 -0.34551 -0.22730464
0.14557227 0.040839694 -0.2774437 -0.11734843 0.40958992 0.37216088 -0.18429388 -0.101258546
-0.24953198 -0.026889233 -0.28625235 -0.25742596 0.015789531 0.055668075 -0.13051026 0.26253855
-0.19694063 0.32996005 0.2649407 -0.28762928 -0.05584199 0.06370257 0.08652221 0.0933367
0.1884776 0.040635947 -0.17075679 0.18041773 -0.33251595 -0.2061509 -0.080920935 -0.12961812
-0.023767639 -0.29606467 -0.064025186 0.16487242 -0.22263753 0.007718466 0.3340379 -0.061648227
0.010952536 -0.004969332 0.06560597 0.23041506 0.3358745 0.23873222 0.33950388 -0.031254992
-0.32622585 -0.15016364 0.27310047 -0.03759715 -0.16486387 -0.25952846 -0.29894748 -0.26456657
-0.07261059 0.2640765 0.23648965 -0.31340185 0.27315813 -0.24517284 -0.075566486 -0.07323487
-0.052652393 -0.055037312 -0.31162468 -0.25226125 0.032696865 -0.008751527 -0.123037405 0.23866586
-0.283358 0.015169419 0.39457414 -0.16585213 0.34908348 0.16490245 -0.34925377 0.25869995
-0.013222174 -0.15886836 0.3117168 -0.25727364 0.065703996 -0.031400092 0.2922136 0.09255713
0.17592342 0.14858839 -0.15362167 -0.11795844 -0.31039843 0.31178278 0.34761423 0.35050896
-0.28134018 -0.008093183 -0.21216744 -0.28629977 -0.2848821 0.010735163 -0.19055872 -0.025484076
0.019650092 0.2159249 -0.2595128 -0.2009773 -0.16456449 0.25096825 -0.08479909 0.31762046
0.13617039 0.05174704 -0.030228868 -0.0728748 0.05246083 -0.13026497 -0.048315622 0.047324486
-0.30274728 -0.17790796 0.3505351 -0.2882247 -0.0066479407 0.41765717 0.12108943 0.048749693
-0.24322325 0.08781204 -0.36903048 -0.23778056 -0.18449926 -0.08591273 -0.0013988792 0.3493774
0.14275618 0.36777574 0.20564008 -0.23106442 0.12967485 -0.24639374 -0.14566597 0.103187956
0.13739836 0.27666417 -0.10056137 0.06821297 0.19267698 -0.3388577 0.30469254 -0.27507555
-0.008614112 0.0017190973 -0.15463725 0.053474758 0.2946803 -0.08896271 -0.21347988 -0.12208825

cnn_layers.0.bias f4 [64]
00000000: 53ff babd 631e 92be 8241 433e e62c 683e
00000010: b66b 8cbd d1b9 6bbe 90e4 96be 34a5 003e
00000020: 94ef 713d 7374 fdbd 0e05 943d 5c9b a93d
00000030: 0ffa 833e 9a48 743e 073a 5dbd 7e51 87be
00000040: 9e85 abbe 113c 933e 5d68 e93d ba4c 113e
00000050: 5cc6 6dbe 3b03 803e da94 873e 1207 9f3e
00000060: 1e07 6ebe 242b 43bd d8f1 45be 19e3 913e
00000070: a279 28be 9e0e 06be eb27 0f3e 6740 febd
00000080: 4c45 1dbe bcb5 4dbd 254e 83bc 0eab 66be
00000090: 8310 8c3e 118e eebd 2fc1 1f3e 0336 ad3e
000000a0: b009 fd3d 1cdd 083d 82ec b73e b250 fe3c
000000b0: 3dd1 f0bd f1a3 b33e 360a 963d 4b54 a5be
000000c0: a6b6 dfbd 0aec 63be 656a a03e 9dca 8ebd
000000d0: 6073 88be 1b0d 8fbb 18a5 6e3e 569f 163e
000000e0: 8cc6 e43d 7dcf 853d dd85 c43d c3e7 ebbd
000000f0: fc27 0ebe 9c45 9fbe d615 62be a347 3f3e
-0.091307305 -0.28538808 0.19067958 0.22673377 -0.06856482 -0.23020102 -0.29471254 0.1256302
0.05906637 -0.123757266 0.072275266 0.082815856 0.25776717 0.2385582 -0.054010417 -0.2642936
-0.3350038 0.28756765 0.11396859 0.14189425 -0.232202 0.25002465 0.26480752 0.31060082
-0.23244902 -0.047648564 -0.19330537 0.28493574 -0.16452649 -0.13091514 0.13980071 -0.124146275
-0.15358466 -0.050222144 -0.016028473 -0.2252619 0.27356347 -0.11648191 0.15601037 0.3383027
0.12355363 0.03341399 0.3592263 0.031044338 -0.11758659 0.35086015 0.07326166 -0.32290873
-0.10923509 -0.2225801 0.31331173 -0.06972239 -0.26650524 -0.004365576 0.23305166 0.1470922
0.11170682 0.06533716 0.09595845 -0.115188144 -0.1388244 -0.31107795 -0.22078642 0.18679671

cnn_layers.3.weight f4 [16, 64, 3, 3]
00000000: aaa6 26bd 88e9 62bc daff 083b 4e9d f3b9
00000010: 5602 f4bc 0949 2c3d ae8a a5bc 0ec6 133d
00000020: d061 23bd bfcf d5bc 9d9a 693c 8cb5 63bc
00000030: 79e9 0e3d df44 6abc 55a9 cbbc d2ac 5ebc
00000040: b360 c53c b85f 2d3d 8ea5 40bd 8f20 483c
00000050: 7c52 3e3c b898 03bd 46c7 0a3d fa05 293c
00000060: df02 1e3b 2379 803d 21ba 073d c1c3 2e3d
00000070: 7a93 953d 5e0d 3f3d 9000 213c 7ddd 773d
00000080: 3c29 4dbc 1c8d 483d 2fde 9c3d e533 463b
00000090: 801d 9bbc 1972 ffbc bf5e 69bc 62cd 8dbc
000000a0: 78c9 d73c fab8 ecbc b5c0 c3bc 67f2 d3ba
000000b0: 0eca a03c 0a47 343d 8f78 08bc 508e 54bb
000000c0: bee7 7b3c 7072 50b8 2d1c 753d 8de6 c3bc
000000d0: 4b06 d53c afbd bc3d dc81 37bc cd36 05bd
000000e0: 9c49 653c 1a97 e6bc 2885 a93c 73be e43b
000000f0: 1c42 9ebc 6695 bc3c 80de 20bd b0b5 0b3d
00000100: 7885 1ebd df21 e9bc fae8 3f3a 5c8c dd3c
00000110: d820 0ebd f1d3 d63c 26eb 24bb bce7 b5bc
00000120: 2267 d8bc c61e b9bd 0969 5dbd 4490 63ba
00000130: 4b00 99bc 3c95 b73b 607d 253c 308e 113d
00000140: 8869 243d b7bf 0b3b 25ef 89b8 36ad 49bd
00000150: 78cc bcb8 4ad5 143c 9ed4 963c a3d8 13bd
00000160: f98b 8f3c f33e 36ba d557 77bc ca68 7abb
00000170: d948 9abd 3fac 7d3b 029e 2abd c93b 043d
00000180: cdc4 a0bb 8ad0 e6bc 19a9 953c d48b 4bbd
00000190: eb8e 66bd 4f8e 2dbd 026d 753d 307a 0b3c
000001a0: 0742 aa3b 2e12 033d 9315 263d 0df6 05bd
000001b0: 5426 dbbb d2ce 45bc e28e 81bd 6c30 7fbc
000001c0: 6e25 e03c 7a8d 733c 63e0 00bc 100a 483c
000001d0: 69b6 0cbd b79d 5e3d 8851 1bbc f986 9cbd
000001e0: 033d a03c 5bc9 0f3d 0d45 57bd 4890 233d
000001f0: 86f1 053d 9cf9 11bd 36a0 74bc 0907 443d
00000200: e533 4339 ac11 59bc 6694 2c3d d6a1 323b
00000210: 5a4e 293d f10a 533d e473 623d 067b 49bc
00000220: 286e ac3c 1ecf a0bc 14bf e63c 6068 5bbd
00000230: 64dd e0bc 1b2a e43c 7a9d 453b c681 a93c
00000240: 5f3a 8cbc 13ec 1f3d 772a d53c 0838 2dba
00000250: a20c 363d 0231 b13c 01a4 983c 6966 193d
00000260: dc0a 083d 24a9 813d 0330 b33c 1c2b 74bd
00000270: f90e 0e3c caec 35bc 2332 4ebd 0843 b4bb
00000280: fad8 053d d98c 6abc 0c33 a33c 587b 3dbb
00000290: b8ed 153d f142 043d 1b34 a53d 8b8d df3c
000002a0: a38c 203d c89d 433d 1219 a63c 11ee 9ebc
000002b0: 24d2 3abd 54a5 34bd 1632 6c3b ff09 adbc
000002c0: 0314 7fbb 7eeb 233d 3850 fbbb 8646 343d
000002d0: b651 123d a4b1 00bd 9266 603b 167c 66bc
000002e0: c753 4dbc 47dc d1ba bad1 1ebc b0eb 9abc
000002f0: 20dd 16bc dcc1 0fbd 1fe8 02bd bad1 6ebd
00000300: 7a59 d63b 4221 f7bc 2117 62bd 0f23 05bc
00000310: e0fd 72bb 5aff adbc a8dc 01bc 0c6f 353d
00000320: 5c36 9bbc 8503 193d ce59 f13c db55 823b
00000330: 7737 153d 7130 3a3c 9f45 273c 69cc 493c
00000340: 7ee8 23bd 5152 edbc 243b 25bc 82d7 093c
00000350: 06b4 27bd 86bb 2cbd 7e2b 6eba 3b0c 1fbd
00000360: 8cc3 ccbc 8726 0abc c72b 0a3d 5cc4 60bd
00000370: 3837 573c 68bd 8e3d b084 a6ba db32 2abb
00000380: 411e 7a3d ec27 47bd 6f69 f3bc 6be9 24bd
00000390: 9cfd 73bc e484 733b c810 73bc 3418 da3b
000003a0: 3de2 f8bc 9c5e 28bc ef7b 67bc 1e79 d73b
000003b0: 349d a13c ae64 083d dbbc d0bc 6e4c 653a
000003c0: f43d a8bc 623a fdbc 4fac febc 3dc1 a13d
000003d0: a0c5 8a3d 6b9e 813a a0cc 433d 8f58 a2bc
000003e0: c15e d7bc e877 393d 97c9 3e3b 236f 213d
000003f0: c01d cd3c 158f a63d 440f 93bc e230 4a3d
-0.040686287 -0.0138496235 0.0020904453 -0.00046465773 -0.02978627 0.04206184 -0.02020773 0.03607755
-0.039888203 -0.026100038 0.014258054 -0.013898265 0.034890626 -0.014298647 -0.024861017 -0.013591008
0.024093961 0.042327613 -0.047032885 0.012214794 0.0116163455 -0.032128066 0.03388145 0.010316366
0.0024110598 0.06273105 0.03313649 0.042667154 0.073035195 0.046643607 0.009826794 0.060513962
-0.012522038 0.048962697 0.07659566 0.0030243334 -0.018934965 -0.031182336 -0.014243781 -0.017309848
0.026341185 -0.028896797 -0.0238956 -0.0016170264 0.019627597 0.04401306 -0.008329525 -0.0032433458
0.015375076 -4.9697643e-05 0.059841324 -0.023913646 0.026003977 0.09215867 -0.0112003945 -0.032522965
0.013994601 -0.028148223 0.020693377 0.006980711 -0.019318633 0.023020457 -0.039274693 0.034108818
-0.038701504 -0.028458534 0.0007320788 0.027044468 -0.03469929 0.026224108 -0.0025164573 -0.022205226
-0.026416365 -0.09039073 -0.054055247 -0.000868086 -0.018676898 0.005602507 0.0101006925 0.03553599
0.040139705 0.0021323988 -6.577213e-05 -0.049237452 -9.002624e-05 0.009084055 0.01841193 -0.036095273
0.017522799 -0.0006952129 -0.015096624 -0.0038209432 -0.07533426 0.0038707403 -0.041654594 0.032283578
-0.004906273 -0.028175611 0.018269109 -0.049693897 -0.05628864 -0.042372044 0.05991841 0.0085130185
0.0051958594 0.03199976 0.04054792 -0.032705355 -0.0066879187 -0.012073236 -0.06326081 -0.0155755095
0.027361598 0.014865274 -0.007865998 0.01220943 -0.034353647 0.054349627 -0.009479888 -0.076429315
0.019560343 0.035104137 -0.052556086 0.03993252 0.032701038 -0.035638437 -0.014930775 0.04785827
0.00018615981 -0.013248842 0.04213371 0.0027257106 0.041334487 0.051524106 0.055286303 -0.0122973975
0.02104862 -0.019630011 0.028167285 -0.053566337 -0.027449317 0.027852109 0.0030153678 0.020691764
-0.017117677 0.039043497 0.026021225 -0.00066077756 0.04444564 0.021629814 0.01863289 0.03745118
0.03321348 0.06331089 0.02187348 -0.059611425 0.008670562 -0.011103818 -0.050340783 -0.005501155
0.032677628 -0.014315807 0.019921802 -0.002891263 0.03660366 0.032290403 0.08066579 0.027289173
0.03919662 0.047757894 0.020275626 -0.019400628 -0.045610562 -0.04410298 0.0036040596 -0.02112293
-0.003892184 0.040019505 -0.007669475 0.04401257 0.035722457 -0.03141941 0.0034240824 -0.01406767
-0.012532181 -0.0016011082 -0.009693557 -0.018911213 -0.009207994 -0.035096988 -0.03195965 -0.05830548
0.006541428 -0.030167226 -0.05519784 -0.008126034 -0.003707759 -0.021239925 -0.007926144 0.044295356
-0.018946819 0.037356872 0.029461768 0.00397752 0.03642985 0.011364088 0.01020947 0.012316802
-0.040016644 -0.028969916 -0.010084901 0.0084131975 -0.040943168 -0.042171024 -0.00090854603 -0.038830023
-0.024995588 -0.008432037 0.033733156 -0.054874763 0.013135724 0.0696972 -0.0012704339 -0.0025970254
0.06106401 -0.048622057 -0.02971336 -0.040261667 -0.014892008 0.0037158066 -0.014835544 0.0066557173
-0.030381316 -0.010276463 -0.014128669 0.0065757176 0.01972828 0.03329914 -0.025480678 0.00087470456
-0.020537354 -0.030911628 -0.031088023 0.078981854 0.06775975 0.0009889131 0.047802567 -0.019817619
-0.0262903 0.045280367 0.0029111856 0.03941263 0.0250386 0.081327595 -0.017951615 0.049363025

cnn_layers.3.bias f4 [16]
00000000: cdc1 8d3b 4ca7 32bc 4e6c e8bb 2a8c b83c
00000010: e2ca 87bc ea53 b0bc 0c9c 3abb 1817 c4bc
00000020: 5740 883c 7744 18bc aa15 d2bb f6e6 963b
00000030: eb07 bbbc 347a b6bc 3fc2 1d3d 3413 9dbc
0.0043260814 -0.0109041445 -0.007092989 0.022527773 -0.016576234 -0.021524388 -0.002847436 -0.023936793
0.016632242 -0.009293667 -0.006411274 0.0046051694 -0.022830924 -0.022275068 0.038515326 -0.019174196

cnn_layers.6.weight f4 [4, 16, 3, 3]
00000000: 29f7 e9bd 9f67 b43d 3ea3 133e 54ee 19bd
00000010: 58c4 1c3d 76c0 153e 22c9 3bbc dec5 30bd
00000020: 0b4d 5c3d 1344 723b 1dca efbd 6120 d1bc
00000030: 2134 cb3c d358 da3d 31af 143d afda 683e
00000040: 8179 163e c30e 793d 7a30 6c3d ed91 283d
00000050: f7af b0bd b92e 9f3b 3887 173d f5eb f63c
00000060: 8445 103e 6565 113e 3a36 ed3c f47c a1bc
00000070: c807 aebd 9b87 0dbe bd36 503d 2134 2ebd
00000080: 3ee6 d73c dd2a 783e 1f6f 823e a675 9f3d
00000090: 3418 143e 1684 b93d c1ed 33bd dabd b1bd
000000a0: c674 9ebd 1c01 05be 0a20 3d3e a37f ab3d
000000b0: 3f95 023e 4bdd 30bd 80a9 be3b e383 c9bc
000000c0: aca2 03be 1482 d13d 4bc2 d3bd 425c e53d
000000d0: 21ee 9a3d b658 7c3b 0e04 d93c b2b9 c4bc
000000e0: 3113 80bd 2a29 31be 1654 13be 355a 16bd
000000f0: 0300 20bd 98f1 7ebc 6da1 42bd 3159 c83c
00000100: a66a de3d dd40 efbd 7a85 5b3d 0ce1 3c3c
00000110: 9fb2 d23c 95a4 a03c e627 eb3c 46a8 c3bd
00000120: 0c80 253e 9730 1a3e ff0f 05be 6ccc 1abe
00000130: 1ab8 483d de61 ecbd 9b37 003e ff0c ce3d
00000140: 0f56 71bd 30eb 42bb a7d4 95bd 40f5 a1bd
00000150: 94e8 8d3d f847 ac3d e503 303e 5d48 2b3e
00000160: 365b 8a3d 9626 3f3c 69e4 28bc aea6 b6bb
00000170: f50e f2bd c0d1 5b3e b0cb c23d 5cf9 053e
00000180: 2e04 f3bd d0de 49be efcd 31bd bca5 b83b
00000190: 86af 11bc df62 f3bb 3b25 7e3d 4480 48bd
000001a0: 4d00 bfbd 92d9 26be 32c8 84bc 6e5c babd
000001b0: a7d7 323d 5082 a63c 87a9 48bd 6ce3 1bbe
000001c0: 7115 95bc f642 daba d60d ab3c 72b5 703d
000001d0: 16d5 76bc e10b 45bd 3264 d13c 72af 713d
000001e0: db46 a5bd 5c54 163b 2122 7fbc 5c96 3d3e
000001f0: 809d 65bd 6e74 fdbb 3f55 273d 4ab5 e13d
00000200: d098 4a3d 344c 91bc 292d b6bd 89aa 17be
00000210: ec11 fa3c 96a5 ae3d 4da1 88bd fc18 a23d
00000220: 7e49 93bc bcae 283e 3a4d 65bd fa3c cbbd
00000230: 2a73 43bd d8b9 56bd 60ca c939 2432 1d3e
00000240: 3176 3d3c 7f50 1abc e85e 91bd 2467 fe3d
00000250: 11d9 5bbd 33d5 c4bd 8e40 7dbd 3286 a9bd
00000260: fe78 efbc 469b 35bd 460b 313d c80a 4ebd
00000270: 92c4 27bc 25de 8dbd bba7 f6bc 7be1 b3bd
00000280: d082 72bd 4eb3 a3bc daea 153d 5a3e b4bd
00000290: 32a6 5a3b caa7 b83c 8112 2ebd 3a82 7ebd
000002a0: 93fd 03be ca6b 81bd dbff c4bd 1d90 cf3d
000002b0: 253d 1bbd 87cc 8b3d 93a3 babc 7a4a e6bc
000002c0: fe29 6abd 52cb 35be f6d0 a5bd f2fc 75bd
000002d0: 87ee 533d 2f75 5b3c 42da 69bd 7a74 443e
000002e0: e2d2 d93d 5063 023d b82c 2c3d 580d 563e
000002f0: acf7 caba 9050 6a3d 9dd8 f53d a389 1dbd
00000300: a219 86ba 60c1 583d 1eb6 efbc 2e67 2cbd
00000310: 9b47 10be 23f9 1abe ccd8 e93d 1644 f73d
00000320: 68e4 e33c 0b6d 673e 3690 883e 22c2 e33d
00000330: bfc3 cb3e 82ef 5e3e ad89 353e a025 153d
00000340: fe59 1cbe 0ebf aabd 907b b2bd e59b 7bbd
00000350: a965 153c cdbb babd 2a5d 55bb 67be eaba
00000360: 4baf 883c 05bf 25be 0235 b2bd bcda c83c
00000370: 4c29 4abd 7721 c03d c33b 16be 52fb d3bd
00000380: 2ec0 bebd c778 233d 9e1b 11bd e677 3e3d
00000390: d0d4 9abd ccb0 adbd ed35 9bbd 1106 2ebe
000003a0: 90c0 cdbd 1452 733d 968b 5e3d 32a6 9e3d
000003b0: 6eb0 9c3d 8dc8 0e3d 81a1 153e 0035 54bd
000003c0: 1763 4d3e 085d 7c3e f575 0e3c 7577 f2bd
000003d0: 10ab 963c 5f90 e5bd 752e 16bd ea50 2e3d
000003e0: a8b0 263e 29c7 463d a5b0 273e d8c3 eebb
000003f0: 071a afbc cdbc 8e3d 9aa4 27bd b5fd aabd
-0.11424095 0.08808827 0.1441774 -0.037580803 0.038273185 0.146242 -0.011461528 -0.04315745
0.05378441 0.0036966845 -0.11708472 -0.025528135 0.02480513 0.10661473 0.036299888 0.22739671
0.14694788 0.060805093 0.05766342 0.04115479 -0.08627313 0.0048578647 0.03699419 0.03014181
0.14089018 0.14198835 0.028956521 -0.019712903 -0.08497578 -0.1382126 0.050833452 -0.042530183
0.026354905 0.24235101 0.25475404 0.077861115 0.14462358 0.090583965 -0.04392791 -0.086787894
-0.077371165 -0.12988704 0.18469253 0.08373954 0.12752245 -0.04317979 0.005818546 -0.024599021
-0.12855023 0.102298886 -0.10339793 0.111992374 0.07564951 0.0038505024 0.026491191 -0.024014328
-0.062536605 -0.17300859 -0.14387545 -0.036707122 -0.03906251 -0.01556053 -0.04751723 0.024456592
0.10860185 -0.116822936 0.05359409 0.011528265 0.025719939 0.019609729 0.028705548 -0.0955358
0.16162127 0.15057598 -0.12994383 -0.15117043 0.049003698 -0.11542104 0.12521212 0.100610726
-0.058919962 -0.0029742233 -0.07315951 -0.07908106 0.069291264 0.084121644 0.17188986 0.16726823
0.06755678 0.011666914 -0.0103083635 -0.005574069 -0.11819259 0.21466732 0.095115066 0.13083404
-0.118660316 -0.19713902 -0.043409284 0.0056349915 -0.008891946 -0.007427558 0.062047224 -0.04895045
-0.09326229 -0.16293934 -0.016208742 -0.09099661 0.043662693 0.02032581 -0.0489898 -0.15223473
-0.0181987 -0.0016652036 0.02088062 0.05876679 -0.015065452 -0.04810703 0.025560472 0.05900521
-0.08070155 0.0022938466 -0.015572102 0.18514389 -0.056058407 -0.0077348268 0.04085278 0.11020906
0.04946214 -0.017736532 -0.08895332 -0.14811148 0.030526124 0.08527677 -0.06671391 0.07914922
-0.01797938 0.16472906 -0.055981852 -0.0992374 -0.04771725 -0.05242333 0.0003848849 0.15351158
0.011563824 -0.009418606 -0.0709818 0.12422016 -0.053673808 -0.09610977 -0.061829142 -0.08277549
-0.029232498 -0.044337533 0.04322364 -0.05030325 -0.010239737 -0.06927136 -0.030109277 -0.08783241
-0.059206784 -0.01998296 0.036600925 -0.08800955 0.003336322 0.022540946 -0.042498115 -0.062135912
-0.128897 -0.06319387 -0.09619113 0.10134909 -0.03790011 0.0682612 -0.022783076 -0.028111685
-0.057168953 -0.17753342 -0.08096497 -0.06005568 0.05174115 0.013394638 -0.057092912 0.19185057
0.10635926 0.031832993 0.042034835 0.20903528 -0.0015485189 0.057205737 0.12004206 -0.03846134
-0.0010231028 0.05291879 -0.029261645 -0.042090587 -0.14089815 -0.151341 0.11418304 0.12073533
0.027818874 0.2260019 0.26672524 0.11121012 0.3979778 0.21771052 0.177283 0.036412835
-0.15268704 -0.08337222 -0.08714974 -0.06142797 0.009118476 -0.091178514 -0.003255675 -0.0017909528
0.016685149 -0.1618615 -0.08701517 0.024518363 -0.04935579 0.09381383 -0.14671235 -0.1035067
-0.09313999 0.039910104 -0.03542673 0.046501063 -0.07560122 -0.08480987 -0.07578645 -0.16994502
-0.10046494 0.059404448 0.05433234 0.07746543 0.07650839 0.03485923 0.1461239 -0.051808357
0.20057331 0.24644864 0.008695115 -0.11839191 0.018392116 -0.11209177 -0.0366654 0.042557634
0.16278327 0.048529778 0.16375978 -0.00728653 -0.021374715 0.06969605 -0.04092846 -0.08349172

cnn_layers.6.bias f4 [4]
00000000: e76e 353d f4ba 8e3d f442 df3d c33c a83d
0.044295218 0.06969252 0.10901442 0.082147144

q_layer.qlayer.weights_0 f4 [3]
00000000: c2bd 9e40 5908 c040 50c9 7340
4.960664 6.001019 3.8091621

q_layer.qlayer.weights_1 f4 [3]
00000000: da9d 733f 6cf5 ad3d f0a9 a140
0.9516274 0.08494076 5.0519943

q_layer.qlayer.weights_5 f4 [3]
00000000: 0d32 c440 0882 2640 8434 9040
6.1311097 2.6016865 4.5064106

q_layer.qlayer.weights_6 f4 [3]
00000000: 100c a740 714e 2e3f 7603 563d
5.2202225 0.6808844 0.052249394

q_layer.qlayer.weights_7 f4 [3]
00000000: eb1a a840 c262 223e 3de0 9340
5.253286 0.15857986 4.621123

q_layer.qlayer.weights_8 f4 [3]
00000000: 3c53 9e40 a000 af40 76d2 4640
4.9476604 5.4688263 3.1065955

q_layer.qlayer.weights_12 f4 [3]
00000000: c272 833e 5649 6840 0b49 853f
0.2567349 3.629476 1.0412916

q_layer.qlayer.weights_13 f4 [3]
00000000: bd29 ab40 da7c cd3f 0a06 2140
5.348845 1.6053727 2.5159936

fc1.0.weight f4 [64, 196]
00000000: 6113 79bd 705b 9f3d d96c 103d 5d7d 903d
00000010: 9ab4 d83c 4be7 0ebd 24b5 7a3d 305f 403c
00000020: 167f 483d eff1 e73b e56b 5a3d b13e c33b
00000030: c163 9a3c de24 0abd 17a2 f4bc d597 8a3d
00000040: 6e12 0cbd a4dc 21bd 8d7e bc3d c76d a4bd
00000050: 0cbe 803c 38c3 b53d ebc8 1f3c 5d5a 92bd
00000060: d497 6abd 3c16 42bc 220a 8ebc 1dfa 1d3d
00000070: c268 413d 60b3 e7bc ccc6 babc ace8 49bd
00000080: 003f 2e3b 4577 593d 1cce 27bd fa81 c03b
00000090: 0546 58bc f4df 9dbd 3928 953d 50bd db3b
000000a0: 063e 723d fa72 6ebd b949 ab3c 794f f5bc
000000b0: b9fd 8c3c 3f5c 343c 80fa 853c 1dfc 073d
000000c0: 7775 583d 4c09 853d d80d a63d 91a8 893c
000000d0: 503e 48bd 1657 8d3b 0cb7 adbc 1649 a4bc
000000e0: 08b6 eb39 ae9e b23c fca1 29bd ecdc 8abc
000000f0: fdcd 40bd 4a13 40bc beea 53bd 72a6 46bd
00000100: f129 7abd 65e0 afbd d89e 94ba 7ba1 9fbd
00000110: 2a63 b8bd 4263 063d fcf9 f7bc 78c2 813d
00000120: 423e 1fbc df57 53bc 94b7 bb3d b583 61bd
00000130: dc55 073d 8f9f 2d3d 96dd bd3d 184b e6bd
00000140: 4557 523b 5d77 04bc c6f9 2abd 65eb b63c
00000150: 5afb acbc dc5f 8e3d 0963 27bd a296 b9bc
00000160: bfe5 8c3c 5d3d 903c f3dd 3e3d ad77 b43c
00000170: c466 523d 333f e7bd cc8e cd3c 1ab4 de3c
00000180: 5976 f9bc a531 b1bd 805d bf3d 00ed 98bd
00000190: d2fa 98bd cced 1fbd cbe7 263d 4c5e e63c
000001a0: c3bd 9abd 27ac a23d 63b3 473d 9087 343c
000001b0: 37e1 9dbd 7f42 75bd 9cb0 60bd 529e e9bc
000001c0: a130 95bd 65c9 613d 6eef 88bc acd2 94bc
000001d0: 3e9a 543d 9412 bb3b 17bd a53c 2fbf 65bd
000001e0: 3585 ebbc be09 a3bd dd86 9dbc 8f84 243d
000001f0: d396 81bd 2261 813d 3e6f 963d ae88 383d
00000200: fe77 243d baa3 673d 2800 523d d5db b43c
00000210: 3589 eebc 1e1f 2fbd 1ab0 ca3c 1b6f d3bb
00000220: f273 413b f129 80bb ffea 003d 3fca bd3c
00000230: 011e 4c3d df1d 863d f1bc 3e3c 00aa 41bb
00000240: 9871 0a3d 40fc 4fbd 623c 4d3d 46fa 173d
00000250: eeef 0bbc e924 52bd 788a 473d 81cf 3a3d
00000260: b0a0 b53b 565e 68bd 1d9d 623c 76d2 b3bd
00000270: 6a85 34bc 0aaf 5cbd c840 253d 7e83 18bc
00000280: ff3b 633d 68be 2dbc 47da 26bc 4ab1 c0ba
00000290: a6cd 10bd 0d41 87bc 2166 24bd be2c bfbc
000002a0: 6c4a e63b 16b4 2b3d f236 1b3c ac39 5f3d
000002b0: ac06 25bc 8904 f33c 806f 8fbd 6ab3 1b3d
000002c0: 891d 3f3d 0a8c df3b 5efd 2cbd 7d2d 20bb
000002d0: 8823 a1bd 8f80 9bbd ae70 863d c6f8 2c3d
000002e0: 6aa0 233d 3c19 813d ea81 aabb 688f f73c
000002f0: 82d0 1fbd 1319 6dbd 3fe7 8abc 15ba 35bd
00000300: 36b2 7a3d 0a21 90bd 73ba 8c3d 343e 23bc
00000310: 442a 103b 83d8 563d 2071 95bc 5b43 21bd
00000320: 9fee d23c 6443 e7bb c915 3b3c cf3f f03c
00000330: 62a4 d6bb 8beb 8a3d 1147 40bd 3793 ce3c
00000340: 8cea 0fbc 2af9 7ebc 0fd5 16bd b80c 513d
00000350: c62b 71bd fe46 9a3d b1e8 96bd 072c 8b3d
00000360: 2b80 d2b9 10cd dabc 9864 3e3d 7ce8 02bc
00000370: 8485 f4bc fa4a 00ba 48d9 6dbd b65f 5a3d
00000380: 796b 34bd 4845 3d3d 1386 2e3d 0f6b 293d
00000390: 2011 473c 34b2 423d aef9 66bd 19b8 0dbb
000003a0: 72f2 52bd c545 943d 7234 91ba eac1 e83c
000003b0: 85a9 b2bd 3a98 28bd f0a7 c5bd 7601 a73d
000003c0: 3ca1 c43c d9e8 8dbd 0c7e cbbd bbbb 9e3d
000003d0: 4f21 1c3c 77f7 30bd 0f8c adbc 09b8 853d
000003e0: 1afc 893c f6f6 fa39 a8f4 85bc 7839 0abc
000003f0: 7a88 05bd d301 03bd 3ef8 46bd 94ee 593d
-0.060809497 0.07781112 0.035260055 0.07055161 0.026453305 -0.034888547 0.061207905 0.0117414445
0.048949324 0.0070784013 0.053325552 0.005958401 0.018846394 -0.033726566 -0.029862447 0.06767241
-0.034197263 -0.03951706 0.09203825 -0.08028751 0.015715621 0.08875126 0.009752492 -0.07146142
-0.0572737 -0.011846121 -0.017338816 0.038568605 0.047219045 -0.028283775 -0.022799872 -0.04929416
0.0026587844 0.05309226 -0.040968046 0.0058748694 -0.013200288 -0.07708731 0.072830625 0.0067059174
0.05914118 -0.05821512 0.020909177 -0.029945122 0.017210828 0.011008321 0.0163548 0.03319942
0.0528464 0.06495914 0.08108109 0.016804012 -0.04888755 0.00431336 -0.021205448 -0.020054381
0.00044958317 0.02180418 -0.041414246 -0.016951047 -0.047071446 -0.011723349 -0.05173754 -0.04849858
-0.061075155 -0.08587722 -0.0011338843 -0.07794472 -0.09003289 0.032809503 -0.030270569 0.0633592
-0.009719433 -0.012899368 0.09165874 -0.055057246 0.033040866 0.042388495 0.0927078 -0.11244792
0.0032095474 -0.008085099 -0.04174211 0.022329042 -0.021115948 0.069518775 -0.04086593 -0.022654835
0.017199395 0.017607385 0.046598386 0.022029722 0.051367536 -0.11291351 0.025092505 0.027185488
-0.03045194 -0.08652047 0.093440056 -0.07467079 -0.07469715 -0.03904514 0.0407484 0.028121136
-0.075557254 0.07942992 0.04875506 0.011018649 -0.07708972 -0.05987787 -0.054855928 -0.028517876
-0.07284666 0.055123705 -0.016715731 -0.018166862 0.05190491 0.005709002 0.020231767 -0.05609053
-0.028750041 -0.079608425 -0.019229347 0.04016548 -0.063275956 0.06317355 0.073454365 0.045052223
0.040153496 0.056552626 0.05126968 0.02207748 -0.02911816 -0.042754285 0.024742175 -0.006452454
0.0029518572 -0.00391125 0.03147411 0.023167728 0.0498333 0.06548666 0.011641727 -0.002955079
0.033799738 -0.050777674 0.050106414 0.037103914 -0.00854109 -0.05130473 0.04871604 0.045608047
0.005542837 -0.05673059 0.013831404 -0.087803766 -0.0110181365 -0.053877868 0.040344983 -0.009308694
0.05547714 -0.010604478 -0.010183877 -0.0014701274 -0.03535237 -0.01651051 -0.04013646 -0.023336764
0.0070279147 0.04191979 0.009473549 0.05449836 -0.0100723915 0.029665248 -0.07003689 0.0380129
0.046659026 0.006822114 -0.042233817 -0.0024441176 -0.07868105 -0.0759288 0.06564461 0.042229436
0.039947905 0.06303641 -0.0052034752 0.030219749 -0.039017208 -0.05788524 -0.01695597 -0.044366915
0.06120511 -0.07037552 0.068715 -0.009963561 0.0021997849 0.052452575 -0.018242419 -0.039370876
0.025748549 -0.007057594 0.011418768 0.029327301 -0.0065503577 0.067832075 -0.046942774 0.025216682
-0.008783948 -0.015562335 -0.036824282 0.05103752 -0.058879636 0.07533072 -0.07368601 0.06795507
-0.00040149814 -0.02670911 0.046482652 -0.007989999 -0.029848821 -0.0004893985 -0.058068544 0.053313933
-0.044047806 0.04620865 0.042608332 0.041361865 0.012150079 0.04753323 -0.056390457 -0.0021624623
-0.051500745 0.0723987 -0.0011078252 0.028412778 -0.087237395 -0.0411608 -0.09651172 0.081545755
0.024002664 -0.06929178 -0.09936151 0.077506505 0.009529426 -0.04320475 -0.02118495 0.065292425
0.016843844 0.00047867716 -0.016352013 -0.008436553 -0.032600857 -0.03198416 -0.048576586 0.05320604

fc1.0.bias f4 [64]
00000000: af6e 3d3c 0a41 693d e231 5ebc ac95 253c
00000010: fa3e 9c3c dcfc 463c ad60 a13b c2d7 933d
00000020: 5103 9e3c 487e a8bc c639 603d 492c a7bc
00000030: b5dd 723d 89c3 a53d 6d09 34bc 65c0 403c
00000040: d417 833d 9e85 833c 62ee 36bd 9541 653d
00000050: 4245 0a3c 20cd 993d 907f dd3b 22af 12bd
00000060: 3e1a 793c 7f7e a33c f229 b03d c30a 543d
00000070: fcca d9bc 433d 9f3c d86d 013e 5cb4 1f3d
00000080: f48d 8fbc 80c9 07bd dde9 8c3d 1689 5fbd
00000090: 8c32 0f3d 8248 883d 57f5 893d d0a1 073e
000000a0: 2343 1f3d 12c3 303d e9db 5f3c 8c14 863b
000000b0: ea17 8c3d 3acc 16bd 2134 bfbb bcfc 1d3d
000000c0: ca1d 2abd ea33 603d 06c6 bd3d 353f 03bd
000000d0: 8df7 6bbc fccc 26bd b272 563d 950c a73c
000000e0: 63b5 cb3c a5f0 23bd 1385 7d3d f5d0 b23c
000000f0: 7824 7a3c d2bd da3b 5d44 ab3d 95c9 c8bc
0.011562034 0.05694679 -0.013561698 0.010106485 0.019072998 0.012145247 0.0049248547 0.07218887
0.01928869 -0.020568028 0.054742597 -0.020406859 0.059293468 0.08093936 -0.010988575 0.01176462
0.06401029 0.016054925 -0.044660933 0.055970747 0.008439364 0.075098276 0.0067595914 -0.03581155
0.0152040105 0.019957779 0.086017504 0.051768076 -0.026586048 0.019438392 0.12639558 0.038990363
-0.017523743 -0.03315115 0.068805434 -0.054574095 0.034960315 0.06654455 0.06736248 0.1324532
0.038882386 0.043154784 0.0136632705 0.004091805 0.06840499 -0.03681586 -0.0058350717 0.038571104
-0.041532315 0.05473701 0.092662856 -0.0320427 -0.014402282 -0.040722832 0.052355476 0.020391742
0.024866765 -0.04002442 0.061894488 0.021828154 0.015267484 0.0066754604 0.08362649 -0.024510184

fc1.2.weight f4 [128, 64]
00000000: 5221 df3d c18b c4bb 4484 d33d d244 83bb
00000010: 3c9d 933a 9454 5fbd 913b a2bd 9440 7abd
00000020: 69fb 69bd 7c63 f43d 28a5 913d e40b e13c
00000030: a55e a53d 85e0 823d fdaf f73d 0665 e13d
00000040: 5dd8 143e c9a8 50bd 4231 e23d 41c3 00be
00000050: 23c6 b43d 1cbb 5cbd 2af7 c73d 33e7 d03b
00000060: 8551 c9bd 1bbb 413d ce37 54bd a990 2b3e
00000070: b6ea 9abd 58a2 1bbe b08f 13bd 1c41 e83d
00000080: 5229 213d 4127 313d 1b85 fe3d b5c9 37bd
00000090: 0e30 cc3d efa2 d73d 268b 4c3b 7e05 b83d
000000a0: 0c82 1c3b b63a 84bd ea08 efbd e343 d8bd
000000b0: f08e d9bd c4f4 483d 7b15 e43d c288 54bd
000000c0: 97cf 603d 2115 ec3d defb 77bc bba0 e23d
000000d0: 2d88 813d 983a ef3d 2853 e83d a8cf 54bd
000000e0: 8d73 9abd c262 80bd cf52 05bd ce91 d1bd
000000f0: 0d9f d8bd 808b 6a3d b0c8 f23d cf1c d73d
00000100: ef0b 15bd 6027 853d b459 03be f479 e93c
00000110: 300e 303b b099 e73c e583 b0bc 00fe 8f3d
00000120: 44ad c3bd 4caf 8abd c0e9 31bc 542c a4bc
00000130: f18b 9bbd 4d5e f33d 53c8 ad3d 3ef6 a43d
00000140: 1f17 babd f6a8 ad3d 085e b0bd 9249 b33d
00000150: d555 8b3c d95d d3bc f7aa 02be 5ef7 65bc
00000160: aa2a 81bc 7e40 843a c642 793d ac48 ddbd
00000170: 40b1 b1bd dda1 21bd 4ca0 c8bd feb3 c4bd
00000180: 8347 f53d 0259 d83c 2f42 2fbd 13e9 cabd
00000190: 4166 b53d 400c 07be e0d6 a33d b152 053e
000001a0: 9b2f cebd 0d71 db3c f353 3dbd f877 90bd
000001b0: 89d8 363c ecec dfbd 4cf6 dcbd 42c3 7b3d
000001c0: 6329 8dbd 4e5c f0bd f47c 353d 7312 f1bc
000001d0: 1546 5b3d 460d 993d 6f81 c6bd 41e0 0fbd
000001e0: 1450 e53d b9bc bbbd f81b 1b3e 9a98 d9bd
000001f0: 612c ae3d e656 873c 8b20 bdbd 29be 55bd
00000200: 6803 663d 95ec 0dbd 7a7f 7f3d ebb7 f03d
00000210: ca35 c9bd 6e10 f6bc 08ea c0bd 41b7 c0bd
00000220: bbba cc3d d804 22bd a069 24bc 783b 85bd
00000230: 4b18 4fbc 5f42 553d 913f a73c ac0f 6a3d
00000240: aac8 58bd 03a7 1b3d b850 b2bd 1fd8 e13c
00000250: 45e1 d5bd 5c0f b8bd c5ab 203d dec9 f33d
00000260: cc84 103e 4ea4 e1bd 4ad9 edbd b04d b7bd
00000270: ff45 cc3d 97ba d53d 0c39 953d b95b 893c
00000280: 93f2 7bbc 0275 fc3d e8a8 08be 2b64 163d
00000290: 85bc 97bd 3428 dcbc c28e e6bb 94e5 6cbc
000002a0: b13d b23d 94db 46bd b11e dbbc 20d9 bc3c
000002b0: 2c67 113d 36b3 ae3d 5534 ea3d 043a ff3b
000002c0: 2e58 6abd 29bf af3d c51f f9bd a03c 8bbd
000002d0: 1f33 7a3d 38d0 04bd 75f8 04be 30ac efbd
000002e0: 4edc 80bd d8c5 e43d e9f2 efbc 1329 52bd
000002f0: 975c e53c 52de 913d 4933 4a3d 3aab 323d
00000300: f67c 62bd db25 1e3e 7980 e33d 554c a4bd
00000310: 2205 0c3d 3d34 db3d ead6 dfbd 4247 0bbd
00000320: 0004 b1bd aae9 eb3d 3490 123e dc82 62bd
00000330: 929f a5bd 6977 b83d b8cd 153c 063f ce3b
00000340: e011 51bd 2e54 47bd 885a c43d 049a 1f3d
00000350: 07df 17bd b171 df3c 82c6 6dbc 16a0 c5bd
00000360: 1f76 c43d 7c0d c63d 260d 04be 6acc e43d
00000370: 9477 ae3c 550f e8bd cfec 573d 2554 053d
00000380: be99 d1bb d889 f43b 2a35 833d 833e f7bd
00000390: e9bd 9bbd 5b88 8d3d 2480 893d d211 aabd
000003a0: 80a2 b43d 331a 623b 92bb ab3d 19fc 9abd
000003b0: ab5c 6f3c 3df9 db3d b1d4 763d 5fe4 e2bd
000003c0: 7aa6 54bc 519a d6bd 82ed 923d 603f 9a3c
000003d0: 20fc a33d 8760 33bd 85b6 e4bb f553 473e
000003e0: b158 b83d 0b26 04bc e265 0b3d 3446 c0bd
000003f0: c6d7 e23d 91bd e5bc e654 063d dcc8 adbd
0.10895027 -0.0059981053 0.10327962 -0.0040060068 0.001126207 -0.05452402 -0.07921518 -0.061096743
-0.05712453 0.11933038 0.07111579 0.02747149 0.08074693 0.0639048 0.12094114 0.11005597
0.14535661 -0.050942216 0.110445514 -0.12574483 0.08826854 -0.05388938 0.0976394 0.0063752173
-0.09830002 0.04729758 -0.051811032 0.16754402 -0.07564299 -0.15198648 -0.036025703 0.11340544
0.039346047 0.043250326 0.124277316 -0.044870097 0.09970103 0.10529124 0.0031210869 0.089854226
0.0023881225 -0.06456511 -0.11671622 -0.10559823 -0.10622966 0.04906155 0.111369096 -0.051888235
0.054885473 0.115274675 -0.015135733 0.11065813 0.063248016 0.11681098 0.11343986 -0.05195585
-0.07541571 -0.062688366 -0.032549676 -0.10232888 -0.105772115 0.057261944 0.11854684 0.10503542
-0.036388334 0.06501651 -0.12827188 0.028500535 0.0026863925 0.028271526 -0.021547267 0.070308685
-0.09554532 -0.067717165 -0.010858953 -0.020040669 -0.07595051 0.11883221 0.084854744 0.080547795
-0.09086441 0.08479492 -0.08611685 0.08754267 0.017008701 -0.025801586 -0.1276053 -0.014036028
-0.015767414 0.0010090021 0.060854696 -0.10804877 -0.08676386 -0.039461005 -0.09796199 -0.09604643
0.119765304 0.02640963 -0.042787727 -0.09907737 0.08857394 -0.13188267 0.079999685 0.13019826
-0.10067674 0.026787305 -0.04622264 -0.07054132 0.011160024 -0.10933861 -0.10789165 0.06146551
-0.068926595 -0.11736356 0.044308618 -0.029427743 0.053533632 0.07473235 -0.09692656 -0.035125975
0.11196914 -0.09166855 0.15147388 -0.106248096 0.08504558 0.016520929 -0.09234723 -0.052183304
0.056155592 -0.03464945 0.06237743 0.117538296 -0.098247126 -0.030037131 -0.09419638 -0.09409953
0.099965535 -0.0395554 -0.010034949 -0.065054834 -0.012640069 0.05206525 0.020416053 0.057143852
-0.052925743 0.03800107 -0.08706802 0.027568875 -0.104433574 -0.089873046 0.039226312 0.119037375
0.14113158 -0.11017667 -0.1161371 -0.089503646 0.09974288 0.1043598 0.072862715 0.01676737
-0.015377658 0.12327005 -0.13345683 0.03671662 -0.07409004 -0.02687464 -0.007036061 -0.014459033
0.08703173 -0.04854925 -0.026748033 0.023052752 0.035498783 0.085302755 0.11435763 0.0077888984
-0.057213 0.08581383 -0.12164263 -0.06798673 0.06108391 -0.032425135 -0.12985404 -0.11702764
-0.0629202 0.11170548 -0.029290633 -0.051308703 0.027998252 0.07122482 0.049365316 0.043620326
-0.055294953 0.15444128 0.111084886 -0.08022372 0.034184583 0.10703323 -0.109296635 -0.034003504
-0.08643341 0.11519177 0.14312822 -0.05530058 -0.08087076 0.09007151 0.009143285 0.006294134
-0.051042438 -0.048664264 0.0958758 0.03896524 -0.03707793 0.027275892 -0.01451266 -0.096496746
0.09592842 0.09670541 -0.1289564 0.111718014 0.021297254 -0.11331049 0.052716073 0.03255095
-0.0063965013 0.0074627213 0.064066246 -0.1207247 -0.07604582 0.06910773 0.06713894 -0.0830418
0.08820057 0.003450048 0.083853856 -0.07567615 0.014609496 0.10740898 0.060261432 -0.110787146
-0.012979144 -0.10478652 0.07174207 0.018829048 0.080070734 -0.043793228 -0.006979766 0.19465621
0.090012915 -0.008065711 0.03403271 -0.0938839 0.11076312 -0.028044494 0.03279581 -0.084855765

fc1.2.bias f4 [128]
00000000: 381e da3d 74e4 8abd ef06 013c ba7f b73d
00000010: 0f4c 2bbd 8cfc e8bd b0fe aa3d dcf8 7ebc
00000020: 47c3 9dbd 5900 d5bd f50a cdbd cf70 cf3d
00000030: e8c2 fcbd 74ee 11bd 6ab9 b63d 5636 bf3d
00000040: 60cd efbd a491 c5bd b6c6 053e 292f 4ebd
00000050: fa8d b23d 66d1 a9bd 9dd7 9d3d 9800 93bd
00000060: 3d1d d23d fdf1 363d 1063 19be cd49 afbd
00000070: 6595 153d a83d ff3d d8ae 9fbd 9e80 c4bc
00000080: ae87 063e 1d96 c9bb 4fab f73d 504f bb3d
00000090: 302a d83b 5e6b 0d3d 552b 3d3d 94d2 e43d
000000a0: 8845 b0bd 2133 65bd cfea 2d3d 499d cbbd
000000b0: e3ea c5bd b3ac 9abd 1256 0fbd 6ba7 e13d
000000c0: 5468 4d3c 2bf9 ae3d 391f 6dbd 1688 8d3d
000000d0: a2c2 5e3d ad7a b8bd 82e9 eb3d 693c 4d3d
000000e0: 43c5 953d 37a4 913d 2c2c c63d 68c3 3f3d
000000f0: 4eb3 71bd 34c8 6e3d 3d2b 7abd 717c afbd
00000100: 6fd3 80bd c0cf b13c d4c7 d83d b400 e23d
00000110: eb1e 20bc afa1 6bbb 456e cb3d 8058 08bd
00000120: 073f 843d 4ca0 36bd 032d f6bb a7f1 d73d
00000130: 0845 e4bd a76d f53d ad6d 053e 1a49 98bd
00000140: 3cb2 78bd 2ea4 663c cee1 4b3c 8763 d7bd
00000150: dcdd 233c 36b1 3dbb 3c75 0abe 78d9 e73d
00000160: 1fc9 8b3c 6d74 87bc 3455 2abd f63e 25be
00000170: 4817 e8bd df86 44bd ec73 c0bc f28a 7dbd
00000180: 004a 09bd c83f d03d 8298 ad3d f76e 82bd
00000190: 725e 793d ce6c 8e3c ba40 90bd db93 a23d
000001a0: 9040 233e 69a2 fa3d fd4f ff3d 58f9 65bd
000001b0: 0db9 d4bc e4cf 083e b9ce e23d 2566 9abd
000001c0: 784f 7d3c 7b81 8d3b ca5b e33d ed6f 8f3d
000001d0: 0148 20be 9d33 dabc 4528 bf3d eef9 363d
000001e0: 7ce8 7abc d3c0 633b eeb7 dbbd 8aec 0c3d
000001f0: 0b4f 4bba e846 d2bc ed97 35bd c944 01be
0.10650295 -0.06781855 0.007875188 0.08959909 -0.041820582 -0.113762945 0.08349359 -0.015562262
-0.07703262 -0.10400457 -0.100118555 0.101289384 -0.12341863 -0.035627797 0.08922084 0.09336536
-0.11709094 -0.09646919 0.13064083 -0.050337944 0.08718486 -0.08291893 0.077071406 -0.071778476
0.10259483 0.04466437 -0.14979196 -0.08558998 0.036519427 0.12462932 -0.07797021 -0.02398711
0.13137695 -0.006151928 0.120932214 0.09145987 0.006596826 0.03452622 0.046183903 0.11172977
-0.08607012 -0.055956963 0.04246026 -0.09942109 -0.09663942 -0.07552471 -0.034994192 0.110182606
0.012537081 0.08543619 -0.057891104 0.06910722 0.054384835 -0.090077735 0.115191475 0.05010644
0.07313015 0.071113996 0.09676394 0.046817213 -0.05900889 0.058296397 -0.06107639 -0.08568657
-0.06290328 0.021705508 0.10584989 0.1103529 -0.009772996 -0.0035954525 0.099331416 -0.033287525
0.06457334 -0.044586465 -0.00751269 0.105441384 -0.11145979 0.11983805 0.13030119 -0.07435818
-0.060716853 0.014077229 0.012443973 -0.1051703 0.010001626 -0.0028944737 -0.13521284 0.11320776
0.017063675 -0.016535008 -0.041585162 -0.16137299 -0.113325655 -0.047980186 -0.023492776 -0.061900087
-0.033517838 0.10168415 0.08476354 -0.06368821 0.060881086 0.017385866 -0.070435956 0.079383574
0.15942597 0.122380085 0.124664284 -0.056145996 -0.025967145 0.13360554 0.110745855 -0.07539014
0.015460841 0.004318414 0.11101492 0.0700377 -0.15652467 -0.02663594 0.09333853 0.044671945
-0.015314218 0.0034752383 -0.10728441 0.03440527 -0.0007755614 -0.025668576 -0.04433434 -0.12623896

fc.0.weight f4 [64, 128]
00000000: fe8a 97bc cb45 4a3d 4864 90bd 2d54 54bc
00000010: f8ce a2bd 4e62 c73c e1b1 88bd 1d9f 293d
00000020: 67e1 37bb eb4a 873c efbc 963d db5d 9b3c
00000030: 8657 f8bc 2a2f a7bc 8124 f83b 2cf9 433d
00000040: 5cb9 a8bd 4107 073d da1b 5f3b b633 c13d
00000050: 3b83 94bd 3e68 72bd 68df 91bb 022a 4f3d
00000060: 8fe1 2bbc 0d4d 1abd b647 ef3c 0f72 26bc
00000070: 79b3 dbbc b2f4 dd3c c2eb 5fbd a43f a7bd
00000080: 1a75 b5bd e40d 0e3d 3918 85bd 08ef 84bd
00000090: f715 3abd 4e0d 9c3d 5b3d 643d cca3 bc3d
000000a0: 4698 5cbd 34cf 89bd a0ca 043d dc33 8e3d
000000b0: ac6c 023c 2ad3 a2bd 9e48 a93d 2ae1 6e3d
000000c0: 060a 903d 0554 583d e341 123d 2f38 ed3b
000000d0: df43 383d 40e5 a43c 21e3 3bbd 68d9 a0bc
000000e0: bd0a 9a3b a885 fc3a e1d8 a53d 0ba9 943d
000000f0: 84cf c7ba e4be 02bd df34 ab3b cbfd 603d
00000100: b2db b83d d8a5 8d3c 791e 98bc 7001 473d
00000110: f730 85bd e073 25bd 5d5e b23d 0d40 973d
00000120: 0578 4b3c af5c 8bbd 32e6 7c3d ea51 643d
00000130: b186 da3b 531e cc3d 58bd 56bd 357b 8bbb
00000140: 6b2d 283d fe5d 2dbd 3f65 92bd d8da b83b
00000150: fa2c 8f3d 6a71 203d 0dfd 883c 4013 8cbd
00000160: 7cc2 0abd 7bcf b93c c286 8f3d 7df5 293d
00000170: bc15 583d d3c6 03ba 0688 913d d37a 883d
00000180: c795 b43d 5599 e9bb c13c dfbc 5044 6fbd
00000190: 1e7d 72bd b4c2 a7bc 0a82 3c3c 10a1 89bc
000001a0: 2099 36bd 2c27 823d 407c c33d 4876 bebd
000001b0: 05fe 5cbc d139 783d 1ed1 bdbc 6db5 8dbd
000001c0: da6c 2c3d eabd 553d f02d 6bbd 5493 60bd
000001d0: 1cd8 623d f2d6 aabd 4433 263d 1ee7 ad3d
000001e0: b51b b33d 98bd 063c 50f6 afbc 9662 1d3d
000001f0: f1a3 9dbc 7637 43bd 5843 06bd 9e9d 5abd
00000200: 90b0 0a3d a5fe 8a3d 3d2e 873b 9a25 3dbd
00000210: 4e6b 063d a94b 9b3d c516 993d ba32 85bc
00000220: 2e7c debc 3969 9cbd 42c8 fc3c 7e10 613d
00000230: e334 063d ebf2 2d3d 10c8 653d 4960 423d
00000240: c9dd 06bd 36b2 3bbd 28ce 2b3c f029 2a3d
00000250: 719c 2abd e4a9 ecbd 8247 f7bc 26a9 f9bc
00000260: 1522 3fbd 4313 a2bd fe8f 2fbc bdd4 8abd
00000270: 6e16 da3c 47fa 303c 84c4 aabc 3f13 603d
00000280: 08df a5bd ce08 273c 5a72 783b 2fd1 b63d
00000290: 64e3 4b3c 6862 15ba 5095 9ebd d87c 5ebd
000002a0: 9699 39bd 41d0 a83d 47f7 b13d 77a3 e13d
000002b0: c838 57bd d0e1 0abc e12a b3bd b2f4 93bc
000002c0: 8acc a73d 051f a6bd fa80 75bd 788b 3e3d
000002d0: 7ebd 183d 0488 ae3d 5115 793d 3534 e13c
000002e0: b4ba ce3d d7e9 703d dda2 2abd cf88 90bd
000002f0: 3c33 77bd d5e4 5dbc c8dd 823d ad95 5bbd
00000300: 6f8d ac3c 57b3 483d 3aee a53c 847c e8bc
00000310: 0d50 4c3d b005 ed3c 141a 86bd 8557 aabc
00000320: 2235 4c3d b4f5 ae3b 9637 f1bc feda c83d
00000330: b25a 923d a067 9ebc 83dc cc3d c2c4 a23d
00000340: 239f 5a3d 9935 88bd 1198 ac3d d373 1bbd
00000350: 6d02 333d 2430 183d c47c 503c 4caa 693d
00000360: f8b4 db3c 3bff 6e3c fa59 83bd 1965 c2bd
00000370: db63 abbd 615b 80bb ba8b 79bd 7dcb 3cbd
00000380: e5ec 0bbb 074a acbd 3fd1 523d 4baa d93c
00000390: e0c2 a63d be87 c6bd 3693 433d efd6 25bd
000003a0: 3421 753d 2a2e d83d 6272 df3d a70f b9bd
000003b0: 10b7 8bbd 6a99 b7bc bc12 803d 2045 17bd
000003c0: 2487 d23d 2eab bfbd 02e4 5abc 2b9f 66bc
000003d0: 4e3b 3cbd 47ad 9abb d698 3ebd 3909 9abd
000003e0: 1816 8cbd b070 273d 6746 67bc 1883 e2bc
000003f0: 28d3 f43c df5e a93d 8c0b 4d3d a81a c1bc
-0.018498894 0.049382966 -0.07050377 -0.012959522 -0.079496324 0.024338868 -0.06674553 0.041411508
-0.0028057934 0.016515216 0.07360255 0.018965652 -0.030315172 -0.020408232 0.007572711 0.04784505
-0.082384795 0.032965902 0.00340437 0.09433691 -0.07251593 -0.059181444 -0.004451681 0.05057717
-0.010490789 -0.037671138 0.029209 -0.01015903 -0.026818978 0.027094219 -0.054668196 -0.08166435
-0.08860226 0.034681216 -0.06498761 -0.06490904 -0.045431104 0.07619725 0.055722576 0.09210929
-0.053856157 -0.06728974 0.0324198 0.06943485 0.00796048 -0.079504326 0.08265804 0.058320202
0.07033162 0.052814502 0.035707366 0.0072393636 0.044986602 0.020128846 -0.045870904 -0.019634917
0.004700987 0.0019265907 0.08098007 0.07258805 -0.001524434 -0.03192033 0.0052248086 0.054929536
0.090262786 0.017290995 -0.018569218 0.048585355 -0.0650348 -0.04039371 0.087094046 0.073852636
0.012418752 -0.06804787 0.06174297 0.05574218 0.0066688885 0.099667214 -0.052426666 -0.004256631
0.04105894 -0.042325966 -0.071482174 0.0056413226 0.069910005 0.03917066 0.016722227 -0.06839609
-0.03387688 0.022681942 0.07008125 0.04149388 0.052755103 -0.00050268805 0.071060225 0.06664052
0.0881763 -0.0071288743 -0.02725065 -0.058414757 -0.059201352 -0.020478584 0.011505613 -0.016800433
-0.044579625 0.06355128 0.09545183 -0.09299904 -0.013488297 0.060602013 -0.023171004 -0.0691937
0.042095996 0.05218307 -0.057416856 -0.054828003 0.05538188 -0.08341779 0.040576234 0.08491348
0.08745519 0.008223914 -0.021479756 0.038424097 -0.019243212 -0.047660314 -0.032779068 -0.05337297
0.03385979 0.06786851 0.004125385 -0.046178438 0.032817177 0.075827904 0.07475046 -0.01625954
-0.027158823 -0.07637257 0.03085721 0.05494737 0.03276528 0.042467993 0.056098998 0.047455106
-0.032926355 -0.045824252 0.010486163 0.0415439 -0.0416531 -0.115558416 -0.030185465 -0.030476164
-0.046663363 -0.0791383 -0.010715483 -0.06778858 0.026622023 0.010801858 -0.02084566 0.054705855
-0.080991805 0.01019497 0.0037909956 0.08926617 0.012444351 -0.00056985626 -0.07743323 -0.05431828
-0.045312487 0.08242846 0.086897425 0.110175066 -0.052544385 -0.008476689 -0.08748413 -0.018061016
0.081933096 -0.08111385 -0.059937455 0.046519727 0.03729009 0.08522037 0.060811345 0.027490715
0.100942045 0.058816757 -0.041659225 -0.07057344 -0.060351595 -0.013543327 0.06389958 -0.05360954
0.021063535 0.048999157 0.020255197 -0.028379686 0.04988103 0.028933376 -0.06547943 -0.020793686
0.04985536 0.0053393487 -0.02944545 0.098073944 0.07146205 -0.019336522 0.10002997 0.07947685
0.05337442 -0.06650848 0.08427442 -0.037952255 0.043703485 0.037155285 0.012725059 0.057047173
0.026819691 0.014587219 -0.06413646 -0.09491939 -0.08368655 -0.003917143 -0.06092427 -0.0460925
-0.0021350917 -0.08412557 0.051469084 0.02657046 0.08142638 -0.096938595 0.047747813 -0.04048818
0.059846118 0.1055568 0.10910489 -0.090361886 -0.06822026 -0.02241202 0.06253573 -0.036931157
0.10279682 -0.09358822 -0.013360025 -0.014076035 -0.045954995 -0.0047203633 -0.046532474 -0.0752129
-0.068401515 0.04087895 -0.014115906 -0.027650401 0.029885843 0.08270048 0.05005984 -0.023572281

fc.0.bias f4 [64]
00000000: 15fc a9bd f05d c93d 63f2 963d 6b57 c7ba
00000010: b206 863c ef28 913d 9407 6fbd 9dc8 a6bd
00000020: 36c4 2e3d 4903 e13d 40a1 52bd b173 60bd
00000030: 32d2 1e3d 0998 3d3c 67f4 113d ebc1 2bbd
00000040: fbc8 ab3d 9088 d73d c4ab 7cbd 5caf 0a3d
00000050: bb91 173d d44d ce3b d8b8 7a3d dabd 053e
00000060: 6201 fb3c e29d 743d 0482 9c3d 24d1 2abd
00000070: 36fa ddbb c466 c23d 46fe f53d 1a09 53bd
00000080: c1ab 4f3c b272 043d 9f37 3dbd 1db6 943c
00000090: c6d4 823d 0169 fd3c dc14 7b3d c8c7 113e
000000a0: 6063 953d 6266 c53d df81 44bd e832 943d
000000b0: 0004 513d 26ee 9f3d 67c5 d73d 2eb7 013e
000000c0: 14d5 9cbd 363b a9bd ceab f73d b9de 843d
000000d0: 418c 4a3d d382 563c 44df 43bd 3b8e a7bc
000000e0: db5b 7dbd c044 ed3b 35f1 583d 0684 a0bd
000000f0: f3df d03d 89af ca3d e482 f73d 16fa b93c
-0.08300034 0.0983237 0.0737045 -0.0015208548 0.016360614 0.070878856 -0.058356836 -0.08143733
0.04266759 0.10986955 -0.05142331 -0.054797832 0.038774677 0.011571893 0.03563347 -0.04193298
0.08387943 0.10524094 -0.061687246 0.033858642 0.037004214 0.006295899 0.061211437 0.13060704
0.030640308 0.05972088 0.07641986 -0.04170336 -0.0067742122 0.09492257 0.120113894 -0.05152235
0.012675227 0.032335944 -0.046195623 0.018153245 0.063882396 0.030933859 0.06129919 0.14236367
0.07294345 0.096386686 -0.047975417 0.07236272 0.051029205 0.07809095 0.105356984 0.12667534
-0.07657829 -0.08263247 0.12093316 0.064877935 0.049450163 0.013092714 -0.047820345 -0.020453563
-0.06185518 0.0072408617 0.052964408 -0.078376815 0.10198965 0.09896762 0.12085512 0.022702258
