system/models/MNIST/FedAvg_Quanv_torch_MNIST_server.pt (torch, 175345 bytes, 15 tensors)

weight f4 [64, 1, 3, 3]
000000 f2 82 91 3a 74 f8 33 3e 61 83 9d be f7 87 8b be
       0.0011101647 0.17575246 -0.30764297 -0.2725217
000010 61 48 fc bd a6 94 da 3d a5 7d ec 3b d7 11 a3 3e
       -0.12318493 0.10672884 0.0072171264 0.31849548
000020 6d 02 b8 3c 08 74 9e 3d f2 04 e3 bd 04 bd cc bd
       0.022462094 0.07736975 -0.110849276 -0.09996989
000030 12 02 ac be c7 c7 69 be c8 a0 20 be 56 d1 04 3d
       -0.3359533 -0.22830115 -0.15686333 0.0324262
000040 fe a3 40 3e 96 03 80 3e c5 54 9f be bc 8f 61 be
       0.18812558 0.25002736 -0.31119362 -0.22027487
000050 4b c2 e1 3d 2e 02 5d 3e 66 b0 f1 bd 1c 17 8e 3e
       0.110233866 0.21582863 -0.118012235 0.27752006
000060 35 8c b5 bd 69 52 9f 3b 11 38 a4 3e 3a bd 75 be
       -0.08864633 0.004862119 0.32074025 -0.23997965
000070 7a a6 5b be 21 cd e0 bd f0 1c 01 be ad 3c 66 3e
       -0.21450225 -0.10976625 -0.12608695 0.22484083
000080 42 f7 56 be 2c 37 2d be 65 10 65 be a8 42 81 be
       -0.20992759 -0.16915578 -0.22369535 -0.25246167
000090 92 e2 2a be b7 0b c6 3e 5b 84 9b 3e 49 4c 13 3e
       -0.16687992 0.38680813 0.30374417 0.14384569
0000a0 4a 1e 41 3d e2 c4 ba bd e4 e9 f4 bc 80 06 c2 be
       0.047148027 -0.09119584 -0.029896684 -0.37895584
0000b0 5a a4 86 be 6f c3 8a be 74 1e 4c 3e 3a a7 7c 3e
       -0.26297265 -0.2710223 0.19933492 0.24673167
0000c0 3a 94 71 be fc f7 27 3b df f4 90 3e 61 38 a7 3e
       -0.235917 0.0025629988 0.28311822 0.326602
0000d0 e4 e8 42 3e 89 7d ee 3d 5e 16 62 3e 23 3b 47 be
       0.19034153 0.11645038 0.22078845 -0.19456153
0000e0 e5 f5 96 3d d7 d9 7d be e4 1f 6b be 9e ff 2f be
       0.073711194 -0.2479013 -0.22961384 -0.17187354
0000f0 bd 72 40 3e d4 e5 1c 3e 46 88 43 be b4 af ab 3d
       0.18793769 0.15322047 -0.19094953 0.08383122
000100 42 f1 3e 3e c5 41 f2 bc b4 eb 61 3d 2d c9 ad 3d
       0.1864672 -0.029572377 0.055156425 0.08485637
000110 cc d8 3e 3e df 70 bb 3e f9 82 92 be 1e 29 44 be
       0.18637389 0.3660955 -0.2861555 -0.1915631
000120 ff a7 1e 3e 38 6f b0 3e b6 9e b6 3e 6d 5e 96 3e
       0.15493773 0.34459853 0.35667962 0.29368916
000130 e6 4a 69 3d 4e 37 a1 be 58 bf 40 bd 71 74 a7 be
       0.056956194 -0.31487507 -0.04705748 -0.32706025
000140 ac 18 d6 be 89 8a a4 3e 7f e0 7d 3e 64 eb d5 be
       -0.41815698 0.32136944 0.2479267 -0.4178115
000150 77 41 d1 3d 5e c2 8c bd ce ea 09 be 2f ea e0 bd
       0.102175646 -0.0687301 -0.13468477 -0.10982167
000160 65 28 21 3e f0 1d 5e be 81 86 f3 3d 4a 31 5f 3e
       0.15738066 -0.21691108 0.11890889 0.21796146
000170 6d d8 b5 3e 68 97 97 3d 62 42 b5 be c2 08 51 be
       0.35516682 0.07401925 -0.3540221 -0.20413497
000180 b9 12 c9 3d 55 b0 1d 3d 5e e2 8a be 9e e7 f7 bd
       0.09818024 0.03849824 -0.2712583 -0.12104724
000190 56 a2 e1 3e ca 7e d9 3e 3b b5 4c be cf ff b6 bd
       0.44069165 0.42479545 -0.19991009 -0.0893551
0001a0 32 63 5f be a6 b0 5d bd e1 74 99 be a7 bf 90 be
       -0.21815184 -0.054123543 -0.29971984 -0.2827122
0001b0 98 34 68 3c ab 62 16 3d e1 d1 f6 bd 17 44 84 3e
       0.014172696 0.03671519 -0.1205175 0.25833198
0001c0 47 4c 52 be 04 ba b1 3e 2e b2 8a 3e f2 cb 92 be
       -0.2053691 0.3471223 0.27089065 -0.28671223
0001d0 f2 fc 74 bd 08 f1 8c 3d 8e 7b f9 3d ad fe 0a 3e
       -0.05981154 0.068819106 0.12181769 0.13573714
0001e0 2c 45 4e 3e 6d 6e 97 3d b0 55 03 be 8a 98 43 3e
       0.20143574 0.07394109 -0.12825656 0.19101158
0001f0 d8 a7 a3 be 58 70 4a be e3 6e b0 bd 5a 3a 10 be
       -0.31963992 -0.19769418 -0.086149 -0.1408476
000200 ae 1d 59 bd b0 03 8e be 21 0b 92 bd af 23 1a 3e
       -0.05300682 -0.27737188 -0.07131029 0.15052675
000210 8d 1e 2f be 40 cd 30 3d e7 3c af 3e 3b d8 61 bd
       -0.17101498 0.04316449 0.34226152 -0.055137854
000220 c6 5e f6 bb 8a 38 ad bc ea d6 7c 3d ea 13 6c 3e
       -0.007518622 -0.021145124 0.061728396 0.23054472
000230 e7 bd b3 3e 31 bd 81 3e d0 b5 af 3e 6b 52 7b bc
       0.35105821 0.25339654 0.343184 -0.015339474
000240 d8 bd ab be 32 4e 0b be 2a b2 95 3e d2 58 40 bd
       -0.33543277 -0.13604048 0.2923749 -0.046959706
000250 65 30 1f be 2e 6e 65 be 1b ef 9d be 61 5f 8a be
       -0.15545805 -0.22405311 -0.30846485 -0.27025893
000260 77 66 a6 bd 7f f5 7b 3e 5a 19 68 3e af ad 99 be
       -0.08125012 0.24605368 0.22665921 -0.30015323
000270 d6 61 7b 3e 1d 9c 7a be af 59 69 bd a6 c5 c8 bd
       0.2454904 -0.24473615 -0.056970295 -0.098033234
000280 2b 96 53 bd 61 eb 4c bd c1 46 a1 be 58 6d 84 be
       -0.051656883 -0.050029162 -0.31499293 -0.25864673
000290 59 b8 61 bb f9 bf a0 3c 1e 84 09 be 9a 15 38 3e
       -0.0034442155 0.01962279 -0.13429305 0.1797699
0002a0 09 0f 7b be ac 17 1c 3d d8 85 c3 3e 6e fa 0e be
       -0.24517454 0.038108513 0.38188052 -0.13962719
0002b0 b5 72 b1 3e f7 4b 1a 3e 22 e9 a5 be d0 35 85 3e
       0.34657827 0.15068041 -0.3240443 0.26017618
0002c0 a2 0e e3 bc 49 70 13 be 16 6a 96 3e 9f 71 89 be
       -0.027716938 -0.14398302 0.29377812 -0.268445
0002d0 8c e3 4f 3d d6 d7 cf bc 89 c4 9b 3e d2 ee 91 3d
       0.050754115 -0.025371473 0.30423382 0.071256295
0002e0 3a 92 2a 3e 5a 04 17 3e c2 08 23 be b7 8c 01 be
       0.16657344 0.14747754 -0.1592131 -0.12651335
0002f0 c9 9c a3 be 88 17 ac 3e 3e 6e c4 3e 18 61 ba 3e
       -0.31955555 0.33611703 0.38365358 0.36402202
000300 8d b7 88 be 84 ed 92 3b e2 88 2d be 81 69 99 be
       -0.26702538 0.0044838805 -0.16946748 -0.29963306
000310 09 04 99 be ba ed 96 3c 04 64 3f be 4c 56 f2 ba
       -0.2988589 0.018423904 -0.18690497 -0.0018488853
000320 2c 8d 36 3d e8 18 50 3e ec 25 78 be aa 45 61 be
       0.044568226 0.20322001 -0.24233216 -0.21999231
000330 19 4d 25 be 28 6e 73 3e ba 2a db bd e9 df ae 3e
       -0.16142692 0.2377249 -0.10701509 0.34155205
000340 ce f6 42 3e 7a 04 d9 3d e5 2e 6a bd 52 c0 12 bd
       0.19039461 0.10596557 -0.05717363 -0.035827942
000350 bc a3 a6 3d 54 74 49 be f6 c1 ea bd 22 07 98 bc
       0.081366986 -0.19673282 -0.11462776 -0.018558089
000360 de 62 9a be 0e a6 42 be 77 ea b5 3e da 48 95 be
       -0.30153555 -0.19008657 0.35530445 -0.29157144
000370 dc 28 58 bc a7 e8 cc 3e ae 15 fe 3d 89 7d df 3c
       -0.013193335 0.4002125 0.12406479 0.02728154
000380 d1 d8 96 be ba e0 02 3e 0a 16 ae be 5c 1a 60 be
       -0.29462293 0.12781039 -0.3400119 -0.21885055
000390 b9 07 00 be 36 a9 af bd d8 f7 8d bc 0e c3 b4 3e
       -0.12502946 -0.08577196 -0.017330095 0.35305065
0003a0 33 63 b3 3d f8 27 b2 3e 61 a4 57 3e 86 49 53 be
       0.08759155 0.3479612 0.210588 -0.20633516
0003b0 f6 7e 11 3e 2a 64 6a be 8e 17 14 be 62 6e af 3d
       0.14208588 -0.22889772 -0.1446211 0.08565976
0003c0 3d 7a f7 3d 44 c5 7d 3e 56 5b d8 bd 8a a5 4b 3d
       0.12083862 0.24782282 -0.10564296 0.049718417
0003d0 1e c8 31 3e 9c 6f a5 be 37 e8 95 3e 24 20 83 be
       0.17361495 -0.32311714 0.29278728 -0.2561046
0003e0 ed 48 10 3c 24 02 1b 3c 2e 37 08 be c1 12 8a 3d
       0.008806449 0.00946096 -0.133023 0.06741858
0003f0 a0 3b 9f 3e b2 a6 54 bd 87 be 3b be dc 49 01 be
       0.31100178 -0.051916786 -0.18334399 -0.12625831

bias f4 [64]
000000 e7 b1 ae bd e6 35 99 be 26 91 2e 3e d5 e4 52 3e
       -0.08530026 -0.29923934 0.17047557 0.20595105
000010 ec 1e 9a bd 22 36 5f be b1 2e 9b be 88 e5 b8 3d
       -0.07525429 -0.21797994 -0.3030906 0.090281546
000020 f5 d8 09 3d 76 09 0a be 2c 37 70 3d b3 5e 3f 3d
       0.033654172 -0.13480172 0.058646366 0.04672117
000030 8b d5 71 3e a0 b7 48 3e e8 61 99 bd 0c cf 87 be
       0.23616616 0.19601297 -0.07489377 -0.26525152
000040 66 41 b8 be 71 ef 76 3e 04 e9 91 3d d8 02 dc 3d
       -0.35987395 0.24114777 0.07124522 0.1074273
000050 8a d2 68 be 68 56 59 3e 13 d2 76 3e 69 95 89 3e
       -0.22736564 0.21224368 0.24103574 0.26871803
000060 9a ef 66 be 91 81 8f bd a0 e6 70 be 56 84 75 3e
       -0.22552338 -0.07007135 -0.23525476 0.23976263
000070 87 ae 27 be fb c9 0e be fa f8 03 3e 43 e8 00 be
       -0.1637517 -0.13944237 0.12887946 -0.12588601
000080 fa 00 26 be 18 cc 5b bd 0a 6d c7 bc 22 72 75 be
       -0.1621131 -0.053661436 -0.024343986 -0.2396932
000090 d3 22 81 3e dc 98 09 be d6 77 2d 3e 8e 0e 89 3e
       0.2522188 -0.13437217 0.16940245 0.26768917
0000a0 46 0d dc 3d 16 84 71 bb 8c 09 9f 3e 66 5d 4d 3c
       0.10744719 -0.003685241 0.3106197 0.012534475
0000b0 61 8a ed bd 90 ab 9c 3e ef 1b 25 3d a4 69 9e be
       -0.11598659 0.30599642 0.040309843 -0.30939972
0000c0 93 7e de bd 99 44 77 be d0 c3 84 3e e6 50 c0 bd
       -0.10863986 -0.24147262 0.25930643 -0.0939043
0000d0 1f ff 81 be 4e 12 f6 bb 4e 6e 52 3e 1c 1e 13 3e
       -0.25389954 -0.0075095063 0.2054989 0.14366955
0000e0 78 11 db 3d 0d de 05 3d 4f 3e aa 3d a1 8c 07 be
       0.10696691 0.032682467 0.08312666 -0.1323724
0000f0 c2 40 1a be ce ea 8d be 71 12 4c be be 39 24 3e
       -0.15063766 -0.27718204 -0.1992891 0.16037652

weight f4 [16, 64, 3, 3]
000000 e1 f3 26 bd 5a de 31 bc 62 7a d1 3b 9a 67 62 3b
       -0.040759925 -0.010856235 0.006392763 0.0034546615
000010 0a 92 31 bd 66 5a d0 3c 2b d6 f4 bc 1c 53 19 3d
       -0.043352164 0.02543373 -0.02988728 0.037432775
000020 bf c9 2d bd 67 c9 d0 bc 7c a3 8c 3c 1e 46 3a bb
       -0.04242873 -0.025486661 0.0171678 -0.002842314
000030 e5 3f 19 3d 16 ba 24 bd 8d 4e 0e bd 8f d4 ee bb
       0.03741445 -0.040216528 -0.03474288 -0.0072885226
000040 0e 6c c7 3c 32 ce 26 3d 3f 9d 66 bd 1c ea 4d 3c
       0.024343517 0.040723987 -0.056302305 0.012568023
000050 61 7e c0 3d 4e a2 07 bd d6 16 4e 3d 5c 87 6c 3d
       0.09399105 -0.03311377 0.050314747 0.057746276
000060 27 fc d4 3b 0a 69 c4 3d 72 4f 84 3d ea 5a 0b 3d
       0.0064997855 0.09590347 0.064604655 0.03402225
000070 20 a5 43 3d 8e 2c 92 bb e9 73 e2 3b c5 a4 42 3d
       0.047764897 -0.0044608777 0.00691079 0.047520418
000080 d8 f1 56 bd 8e d8 53 3c dc 18 2a 3d b0 78 f6 bc
       -0.052476734 0.012930049 0.041527614 -0.030086845
000090 e8 23 67 3b 0d 31 f7 bc f7 7a 31 bc 6f 7b 1a bd
       0.0035269205 -0.030174756 -0.01083254 -0.03771537
0000a0 54 d1 1a bc 18 da 37 bd b4 38 9e bc b3 8d 41 bd
       -0.009449322 -0.044885725 -0.019314148 -0.047254276
0000b0 db 22 a5 bb 21 fb a5 3c 69 1d 99 bc 21 b9 b8 3c
       -0.0050395555 0.02026135 -0.018690782 0.022549214
0000c0 73 54 86 3c 81 38 8b 3b 28 dc b5 3d 96 06 0b bd
       0.01639769 0.004248679 0.08879882 -0.033941828
0000d0 56 6c 45 3d c8 0b f7 3d 5b 65 37 3c 19 95 eb bc
       0.04819902 0.12062794 0.011193599 -0.028757619
0000e0 0e fb 1e 3c 3d c9 7d bc 1c 50 8b 3c 0a a5 11 bc
       0.009703411 -0.0154898735 0.017005973 -0.008889446
0000f0 4f cb a2 bb 47 01 ac 3c 33 b0 1f bd c8 c9 ab 3c
       -0.004968084 0.020996703 -0.038986396 0.02097024
000100 ac 89 35 bd 74 7a ce bc ce 2f 11 bc 0b 26 8d 3c
       -0.044320747 -0.025204875 -0.008861495 0.017230054
000110 b2 ac 94 bc 4e aa 23 3d 70 8a 74 bc 74 4b ed 3a
       -0.018148754 0.039957337 -0.014925584 0.0018104152
000120 d8 fe 5a 3c b8 56 62 bd 5e 5f bc bc 3c d5 e1 bc
       0.013366424 -0.055258483 -0.022994693 -0.027567498
000130 12 ea 6e bd 0b 54 a5 3b 1e a3 f5 3c 1a b8 84 bc
       -0.058328696 0.005045419 0.029985007 -0.016201068
000140 26 2d 23 3d 4d 78 24 bb 37 d9 0b 3c 48 25 50 bd
       0.03983798 -0.002509612 0.008535675 -0.050816804
000150 ce f5 ae bc 74 81 c3 ba ce 3b 8b 3c c2 11 e2 bc
       -0.021357443 -0.0014915899 0.01699629 -0.027596358
000160 30 6e 49 3c 35 05 54 3c 0c 3d 40 3c 8e 34 b0 3c
       0.012294337 0.012940695 0.011733305 0.021509435
000170 ab bf 65 bd 96 3d 4a 3a 70 68 87 bd 76 03 21 3d
       -0.056090992 0.00077148655 -0.06611717 0.03930994
000180 61 5b a6 bc eb a7 9c bd 28 13 9f 3c 66 e3 e0 ba
       -0.020307245 -0.07649215 0.019418314 -0.0017157614
000190 2c db 11 bd 85 6b 26 bd dd 63 32 3d c5 40 c8 bc
       -0.03560941 -0.040629882 0.04355227 -0.024444947
0001a0 31 3c b0 bc 38 53 af 3c 8b c8 06 bc 60 ee 9a bd
       -0.021513076 0.021401986 -0.008226524 -0.07564998
0001b0 10 1a 85 bc dd 42 1e bc 92 85 79 bd 36 1e 23 bc
       -0.01624778 -0.009659496 -0.0609184 -0.009955933
0001c0 12 a1 e9 3c 73 25 06 3d b6 84 9d 3c 45 04 85 bb
       0.028519187 0.032750558 0.01922832 -0.004059347
0001d0 a7 7d 44 bc 78 cb 6a 3d 9c a1 14 bc 5a 90 9b bd
       -0.0119928485 0.05732295 -0.009071734 -0.07595892
0001e0 da dc 43 3c 0c b9 35 3c e9 91 81 bd 0e 33 59 3d
       0.011954511 0.011091482 -0.06326658 0.053027205
0001f0 9c 9d 54 3b ed e6 e0 bc c5 03 47 bd 34 45 49 3d
       0.0032442575 -0.027453864 -0.04858758 0.049138263
000200 34 7d 3f 3d 9f ee bc bc 64 d3 18 3d 47 c2 ab 3c
       0.046750262 -0.023063002 0.037310973 0.020966662
000210 f8 91 70 3c ca 52 55 3d 71 3a 73 3d 02 94 07 bd
       0.014683239 0.052080907 0.059381906 -0.033100136
000220 1a 39 58 3c ed fe 4c bc a4 98 f5 3c 12 3a 8f bd
       0.013197208 -0.012511951 0.029980011 -0.06993498
000230 b2 65 cb bb 6c ea 19 3d bc 25 21 3c 90 4e de 3c
       -0.0062071914 0.037577078 0.009835657 0.02713707
000240 92 26 b2 bc 96 4d e3 3c 7d c5 a2 ba 09 30 4d bc
       -0.021746907 0.027746957 -0.0012418475 -0.0125236595
000250 17 c4 14 3d 00 88 af bb a7 28 67 bc dc 19 b9 3c
       0.03631982 -0.0053567886 -0.014108813 0.022595339
000260 24 45 40 3b d9 ae 56 3d e1 6e d7 3c d7 34 9a bd
       0.0029338086 0.05241284 0.026297988 -0.0752961
000270 be f1 7f bc 7f 9d ac bc 6e 8b 7a bd 98 6b 9f 3c
       -0.015621601 -0.021071194 -0.061168127 0.019460484
000280 60 03 23 3c 98 6c fa bc 5c 6c ae bc bf 41 76 bb
       0.009949535 -0.03056936 -0.021291904 -0.0037575809
000290 96 f4 c4 3d 1c 5a c9 3c 84 31 a8 3d 15 71 44 3d
       0.096169636 0.0245791 0.08212569 0.047959406
0002a0 14 76 02 3c ed 18 7a 3d 2d 58 ad 3c c1 17 05 bd
       0.007962722 0.061058927 0.02116021 -0.032493357
0002b0 a4 9d b3 bc 26 0e e3 bc 62 97 5b bc 32 a6 92 bb
       -0.021925755 -0.027716707 -0.013402792 -0.0044753784
0002c0 4c c7 07 3d 32 ac d1 3c 55 41 53 3b f0 ba 2f 3d
       0.03314905 0.025594804 0.0032234986 0.042902887
0002d0 47 f5 60 3d 0d c7 04 bd c0 42 1f b7 ee 9d a2 bc
       0.054921415 -0.032416392 -9.49268e-06 -0.019850697
0002e0 42 d7 e3 bc fc 81 64 bc ba ce 89 bb ce de 08 bd
       -0.027812604 -0.013947006 -0.004205552 -0.033415608
0002f0 ba 53 97 bc d3 41 2a 3d 55 07 b1 3c c5 e1 7c bc
       -0.018472541 0.04156668 0.021609941 -0.015434687
000300 50 01 fb ba d8 60 3c bd bf 85 48 bd d3 2e c1 bc
       -0.0019150171 -0.045990795 -0.048955675 -0.023581898
000310 14 94 1c bd 1f e6 80 bd 37 b3 29 bc 2d 8c f5 3c
       -0.038227156 -0.06293892 -0.01035767 0.029974068
000320 85 fb 39 bd d4 40 39 3d 58 96 a4 3c 28 71 b0 bc
       -0.045405883 0.04522784 0.02009122 -0.021538332
000330 ef 82 cd 3c 01 78 42 ba 1c 9a 79 bc 1c fd 34 3d
       0.025086848 -0.00074183947 -0.015234496 0.044186696
000340 14 ef 3a bc 9c 8e 05 bc 90 c2 80 bc 4a 21 66 ba
       -0.01140954 -0.0081516765 -0.015717775 -0.0008778764
000350 8f ab 22 bd 82 38 3e bd ee 04 72 bc ba 98 79 bd
       -0.039714392 -0.04644061 -0.014771683 -0.060936667
000360 04 a5 20 bd ba 76 7a bc 09 97 8f 3d cc 89 69 bd
       -0.03921987 -0.015287096 0.070112295 -0.05701618
000370 a5 2d 02 3c 7a 6f ef 3d b2 6a b2 bc 9a 81 5d bc
       0.007945453 0.11691184 -0.021779392 -0.013519669
000380 a8 0f bb 3d 81 93 0f bd 05 4c a1 bc 74 c3 55 bd
       0.091338456 -0.03505278 -0.01968957 -0.05218835
000390 67 a5 c9 bb aa ae 92 bb 38 a4 18 bd c5 1b 2e 3c
       -0.0061537507 -0.004476388 -0.037265986 0.010626738
0003a0 55 63 0d bd e8 e1 65 bd b8 a7 dd bb bc 54 f8 3b
       -0.03451856 -0.056123644 -0.0067643784 0.0075784605
0003b0 71 ef e9 3c 9d e8 1c 3d d8 7b c2 bc 98 06 8d 3b
       0.028556557 0.038307775 -0.023740694 0.0043037646
0003c0 47 c8 6d bc f2 38 d3 bc bb 4e 07 bd 87 12 65 3d
       -0.014513082 -0.02578399 -0.033034068 0.055925872
0003d0 d1 70 82 3d 55 51 e0 bc 83 1f f4 3c 83 e8 c3 bc
       0.06369174 -0.027382532 0.029800182 -0.023914581
0003e0 9e 44 14 bd 33 22 86 3d c6 41 6e bc 17 39 70 3c
       -0.03619825 0.06549492 -0.014542049 0.014662049
0003f0 a9 41 d7 3c 27 60 90 3d a7 66 2d bd 86 2e 76 3c
       0.026276426 0.070495896 -0.042334225 0.0150257405

bias f4 [16]
000000 9d 4e 12 3c 5b 93 3c bc 50 41 ed bc b5 e2 04 3c
       0.008929876 -0.011509742 -0.028961807 0.008110692
000010 9c 86 14 bd 20 c6 dc bc 2b 4c 09 bc 88 15 10 bd
       -0.036261186 -0.026949942 -0.008379976 -0.035176784
000020 5e b3 cb 3c f3 9a 07 bd 18 03 9c ba 60 fb 74 ba
       0.024865802 -0.033106755 -0.0011902777 -0.0009345319
000030 a8 d6 cf bb a0 fd b6 bc a3 40 16 3d 10 b5 de bc
       -0.0063427277 -0.022337735 0.036682736 -0.027185947

weight f4 [4, 16, 3, 3]
000000 7a d7 95 ba d8 27 25 3e ab eb 77 3e 08 15 db bc
       -0.0011432015 0.1612848 0.24210994 -0.026743427
000010 d4 30 71 bd 81 e1 04 3e 6d 2c c8 bd 55 dd 64 3d
       -0.058884457 0.12976648 -0.097740985 0.05587514
000020 6e 31 18 3d bd 0c e6 bd f4 4e b5 bd 5e 09 b9 3c
       0.037156515 -0.112328984 -0.0885295 0.022587474
000030 c3 41 0b 3d 2e fd 21 be 44 30 5c be bd fd 8d 3d
       0.033998262 -0.15819237 -0.21502787 0.06933162
000040 f6 2b 9f bd 71 32 91 bd fe 9c 7f 3d 20 0a 55 3d
       -0.07772057 -0.07089699 0.06240558 0.05201161
000050 91 21 80 3c 4f 9c 80 bd fb 39 9f bd 5d f1 17 be
       0.015641006 -0.062798135 -0.07774731 -0.14838167
000060 8e fe 0d bd 6a 9f be bd bc bc b2 bd 9e 70 88 bd
       -0.03466659 -0.093077496 -0.087274045 -0.06662105
000070 0f 4d f0 bd e9 a1 13 be cc c7 39 bd c0 09 1c bd
       -0.11733448 -0.14417233 -0.045356557 -0.038095236
000080 cd ba cf bc 7c d8 fc 3d f5 ce 11 3e d4 55 c4 3d
       -0.025357628 0.123459786 0.14239104 0.09586683
000090 51 c2 e6 3d 7a 02 88 3c e6 bc 5a bd 1e 29 52 bd
       0.11267532 0.016602743 -0.053402804 -0.051308744
0000a0 d8 3d 21 3e 3d 11 a2 3d c7 f8 1e 3e 12 1d 52 3d
       0.15746248 0.07913444 0.15524589 0.051297255
0000b0 78 04 ff bd 65 49 2f 3d 95 b4 bf 3c 3e 91 cc 3c
       -0.12452024 0.042794604 0.023401538 0.0249716
0000c0 8a 18 37 3d 96 68 b4 3d ad 06 2c 3b 87 cf 1e bd
       0.044701137 0.08809011 0.0026249096 -0.038772132
0000d0 4d de d5 bd 34 53 92 3a 12 63 b0 bc ee 47 af bd
       -0.10442791 0.0011163712 -0.021531615 -0.085586414
0000e0 b1 b1 1a be b5 87 a7 bc 74 c4 f7 3c c2 30 cc 3d
       -0.15106846 -0.020450452 0.030245043 0.09970237
0000f0 bc 34 0e bd d7 2f 0a 3e 54 ad 42 3d 5d cc a0 3d
       -0.03471826 0.13494812 0.04752858 0.07851479
000100 ec 5a e1 3d 62 87 b5 bd 04 1b 3e 3d 02 d6 7b bd
       0.1100367 -0.08863713 0.046412483 -0.06148339
000110 ee 93 92 3d 37 0d 44 bd 3f 0b 1a 3d bc 45 c7 bc
       0.071571216 -0.047864165 0.03760838 -0.024325244
000120 4e 57 b6 3c b0 d1 0e 3e c1 b9 0b 3d a6 04 48 3d
       0.022258427 0.13947177 0.034112696 0.048832558
000130 ba ea f5 3c e4 54 4b be 87 e4 34 3e 45 a9 ff bd
       0.030019153 -0.19856602 0.17665301 -0.124834575
000140 c0 e8 50 be 57 f1 05 bc ce 8b ce bd 46 81 b7 bd
       -0.20401287 -0.008175216 -0.100852594 -0.08960204
000150 1f 14 1d 3d dd da 2b 3e 25 fd 73 3e 56 49 ee 3d
       0.038349267 0.16782708 0.23827036 0.116350815
000160 bb 56 c9 3d 3a a4 bc 3c c5 91 05 3b c0 99 bb 3d
       0.09830996 0.023027528 0.0020381075 0.09160185
000170 72 42 af bd b8 67 e4 3d 1f b4 5b 3e 59 e3 5a 3e
       -0.08557595 0.11152595 0.2145543 0.21375789
000180 e8 ca a3 3d c1 b4 d7 3c df f9 02 3e 74 16 84 bd
       0.07997686 0.026331307 0.12790631 -0.06449595
000190 d3 14 46 bc 2f 78 cf ba c6 1f 84 3d 98 be 3c 3d
       -0.012089926 -0.0015828664 0.06451373 0.046080202
0001a0 b4 da b5 3d 26 e1 66 bc e4 31 bc 3d 23 57 10 be
       0.08879605 -0.0140917655 0.091892034 -0.1409574
0001b0 99 0a 9b 3d 1d e4 0e 3e ef e7 d1 3d 5f f7 e0 bd
       0.07570381 0.13954206 0.10249316 -0.10984682
0001c0 74 6c 3c be 4e e9 50 be c4 b6 d9 bd 91 68 04 be
       -0.18400747 -0.20401499 -0.10630563 -0.12930514
0001d0 dd 75 15 be 6e 66 f2 bd 3e 88 02 3c e1 47 23 3d
       -0.14595743 -0.11835943 0.007967053 0.03986347
0001e0 b6 53 c7 bc fc 1d 97 3d 8b 5b 58 3d e7 39 86 3d
       -0.024331909 0.07378766 0.052821677 0.06554013
0001f0 c4 a6 9f bd 0f 4a 26 be f7 b4 13 bd 97 db c4 3d
       -0.0779548 -0.16239189 -0.036061253 0.09612196
000200 0e 34 c2 3d b2 79 93 3c f1 18 cc bd a0 86 55 bd
       0.09482585 0.018002365 -0.09965695 -0.05213034
000210 e3 1e 2b bd 02 b2 dc bc fd 50 27 bd 5e ab 65 3c
       -0.041777503 -0.02694035 -0.04084872 0.014017908
000220 22 d8 59 bc 1d 08 9f 3d a1 a7 b4 bd 5e c5 28 bd
       -0.013296159 0.07765219 -0.08821035 -0.04120385
000230 62 e6 af 3d 60 f2 5d bc fc 6d f2 3d 9c df 49 3e
       0.08588864 -0.013546556 0.11837384 0.19714206
000240 12 03 03 bd b6 63 27 3d 2a de 07 3e 1a c0 8e 3c
       -0.03198535 0.040866576 0.13268343 0.017425586
000250 83 6b 1d 3b a6 00 6e bd 63 e7 03 be bf 67 15 bd
       0.002402038 -0.058106087 -0.12881236 -0.036475893
000260 db bf c8 bd e7 c2 9a bc 00 fa 47 bd 8e f0 fb bb
       -0.098022185 -0.018891765 -0.048822403 -0.0076885885
000270 a0 4e 27 3c 04 19 27 bd b2 d5 a2 3d 1d 7b 31 be
       0.010211617 -0.04079534 0.079509154 -0.1733212
000280 cc 52 8f bd ab da 6c 3d cf 91 bb 3c 41 87 fb 3c
       -0.06998214 0.057825726 0.022896675 0.030704143
000290 4c e5 f4 3b 7f 4b 4e 3d 78 8b ab 3b 5a a2 55 3c
       0.0074736234 0.050364967 0.005235132 0.013039196
0002a0 62 c7 e4 bd c1 2c 85 bd 30 22 01 bc 1c c3 2d 3d
       -0.11170842 -0.06502677 -0.007881686 0.0424224
0002b0 9b b3 98 bc 3f b8 1a 3d 22 84 0b be 86 0b af 3b
       -0.01864033 0.037773367 -0.13624623 0.00534195
0002c0 4a 2b a1 3c 20 2c 6d ba 8c c5 92 3c db 55 3c bd
       0.019673962 -0.00090474077 0.017916463 -0.045980316
0002d0 b2 38 91 3c 4d 91 10 3d 90 d1 3e ba 61 fb e4 3d
       0.01772723 0.03529482 -0.0007279152 0.11180759
0002e0 e7 bc 7c 3d 2b 04 34 3e 7f 47 f4 3d 60 06 15 3e
       0.06170359 0.17579715 0.11927699 0.14553213
0002f0 1b e6 c9 bc 4c 33 03 3e b2 3e 21 3e e2 9b c0 bd
       -0.024645856 0.12812537 0.15746573 -0.09404732
000300 10 af 98 3d 9d c4 46 3e 9b a5 6f 3d 48 e7 ba bc
       0.074552655 0.1941094 0.058507543 -0.022815362
000310 30 df 9d 3c c3 44 01 3d 45 60 36 3d 9e 20 21 3d
       0.019271463 0.031559717 0.044525404 0.039337747
000320 64 82 ad 3d 47 b0 4f 3e 81 a6 6e 3e e5 5a 18 3e
       0.08472136 0.20282088 0.23305704 0.14878424
000330 e0 eb 61 3e ba 86 a5 3d 6c 15 fe 3d 0b 77 d7 3d
       0.22062635 0.08082338 0.1240643 0.105207525
000340 a8 f7 0f bd 4e 61 f1 bc 7e 13 31 bd ed 44 f8 3c
       -0.035148293 -0.029465344 -0.04323148 0.030306304
000350 b4 d4 97 3d 6b 50 ac 3c 88 68 2e 3d 40 3a 02 3d
       0.07413617 0.02103444 0.042580158 0.031793833
000360 57 38 3a 3c 86 00 1d be 21 d4 0a be 0e b9 c6 3b
       0.0113659715 -0.15332231 -0.13557483 0.0060645407
000370 b4 4f 17 bd 78 21 54 3d 02 14 24 be 2c 32 3b bc
       -0.036941245 0.05178973 -0.16023257 -0.011425536
000380 5d db 9c bc 31 ed 47 3d 43 d9 46 3d 4a 82 00 3e
       -0.01914757 0.048810188 0.04854704 0.12549701
000390 35 f9 96 3d f1 be e3 3d 7f fd 22 3e 7e 9f fe 3d
       0.07371751 0.111204036 0.15917014 0.124327645
0003a0 e3 05 84 3d e4 bf 07 3e 38 0a 4e 3c 95 34 ac ba
       0.06446435 0.13256794 0.0125756785 -0.0013138229
0003b0 cb 1d ce bc 73 07 52 bb b1 49 e8 3d 45 0d 52 3c
       -0.02516069 -0.0032047897 0.113421805 0.0128205465
0003c0 22 34 a1 3d 99 9c 01 3e 80 0d 75 3d 28 50 e8 bc
       0.07871272 0.12657394 0.059827328 -0.028358534
0003d0 89 0d 3b 3c 2c 7c 44 be 6e 37 96 3d f2 d2 75 3d
       0.011416801 -0.19187993 0.07334791 0.060015626
0003e0 fd 57 f7 3d 61 fe 74 3d 1c c5 1e 3e cc 6a a0 ba
       0.12077329 0.059812907 0.15504879 -0.0012238859
0003f0 95 b0 49 bd 98 2a d0 3d 4c 87 94 3d c6 ec ef 3c
       -0.049240667 0.10164374 0.07252368 0.029287707

bias f4 [4]
000000 0d 5e 8b 3d 77 d3 d9 3d ee bb 1a 3e 23 4c 11 3d
       0.06805048 0.10636037 0.15110752 0.035473

params f4 [2, 4, 7]
000000 d1 90 09 3f 16 56 94 3f d6 8b 1a 3f 71 bc 9b 3e
       0.537366 1.1588771 0.6036962 0.30417207
000010 24 88 3f 3e be 27 7c 3f cd 61 88 3f 51 69 93 3f
       0.18704277 0.9849814 1.0654846 1.1516515
000020 3b 41 25 3d 96 d6 30 3f 06 9d 4b 3e de fc 19 3f
       0.04034541 0.6907743 0.19884118 0.6015147
000030 e7 27 3b 3f 17 92 7b bd 59 37 1f be 2c 98 82 3f
       0.7310776 -0.06141862 -0.15548457 1.0202689
000040 7b 1a 0b 3e 6e e4 86 3c 22 a2 66 3f a8 63 43 3f
       0.1358432 0.016466346 0.90091145 0.7632394
000050 ed 30 62 3f 6d 67 3e 3f 1e ce 4a 3f 38 aa 15 3f
       0.88355905 0.74376565 0.7922076 0.5846286
000060 8d 4c 3f 3e b0 58 74 3e 5d 3d d4 3e 59 b1 40 3f
       0.18681546 0.23861957 0.41453066 0.7527061
000070 95 6a 17 3e 81 57 4a 3e 7c 25 4d 3d 27 c4 57 3f
       0.14786752 0.19759943 0.050084576 0.8428368
000080 0d 21 1e 3f 92 b2 30 3f f7 76 43 3f 9e 76 27 3e
       0.6176918 0.69022477 0.763534 0.16353843
000090 e8 4d 64 3f 00 6d 48 3f e2 4a 50 3f 05 de 3f 3f
       0.89181376 0.7829132 0.8136426 0.7494815
0000a0 d7 0d 51 3f 8e b0 c7 3e 68 ee 48 3f 90 19 eb 3e
       0.8166174 0.39001888 0.7848878 0.4591794
0000b0 96 75 44 be b4 22 90 3f 86 ff 1c 3d 14 bb 2c 3e
       -0.1918548 1.126059 0.038329624 0.1686824
0000c0 2d c7 e2 3e 84 6e d5 be ac 90 35 3f 6c 92 42 3f
       0.44292584 -0.4168588 0.70923877 0.7600467
0000d0 94 c9 44 3e 64 bc b6 3c d5 16 c2 3d 71 e6 de 3e
       0.19217521 0.022306629 0.09477011 0.43535188

weight f4 [64, 196]
000000 91 27 2c bc 67 ad 33 3d 65 12 41 3d 7d 12 03 bd
       -0.01050748 0.04386654 0.047136683 -0.032000054
000010 eb dc 8f bc 85 32 88 bd 59 f5 c4 3c d4 4e 3e 3d
       -0.017561397 -0.06650261 0.024042772 0.046461895
000020 ed 1b 0f bd 52 cc 89 bc 1a 69 2e 3d 85 f0 de bd
       -0.03493874 -0.01682106 0.0425807 -0.10885719
000030 43 f8 7f 3d 14 43 a0 bb 8a fb d5 3d b6 b5 bf bd
       0.06249262 -0.004890809 0.10448368 -0.093608305
000040 a5 f6 43 bd 23 1a 13 bd a9 67 4e 3d 02 d6 07 bd
       -0.04784264 -0.035913598 0.050391827 -0.033163078
000050 f8 6b 61 bd 64 94 2c 3d 9c 1b b1 3d 11 aa 29 3d
       -0.055034608 0.042133704 0.08647844 0.041421954
000060 aa da 43 3d 95 09 05 3d 85 73 df bc ce bf 17 bc
       0.047815956 0.03247984 -0.027276764 -0.009262038
000070 dd 3b 19 bd 0a fd a8 bc d9 17 38 3c 22 53 72 3c
       -0.037410606 -0.02062847 0.0112361545 0.014790328
000080 71 2e ad bd f2 f8 25 bd 50 3d d8 3b ca 11 54 bd
       -0.084561236 -0.040520616 0.006599106 -0.051774777
000090 8e f1 a9 bd 96 92 83 bd e6 fe 27 3d ae 57 05 be
       -0.08298026 -0.064244434 0.041014574 -0.13021728
0000a0 f5 fe a8 3b a8 91 a5 bd b6 69 99 bb 96 87 42 bc
       0.0051573464 -0.08084422 -0.004681791 -0.0118731465
0000b0 1c 03 34 bd ef 43 58 3d 3f 5f fb bc 7e e9 ae 3c
       -0.043948278 0.05279916 -0.030685065 0.021351572
0000c0 8d 7b 91 3d 0f 92 55 bd 5c 47 a8 bc 35 51 d3 3d
       0.071036436 -0.052141245 -0.02054184 0.103182234
0000d0 1e d3 ab 3d 9f 6d 8b bd 9b e5 4f bd d8 fb 44 3d
       0.08389877 -0.06808018 -0.05075608 0.04809174
0000e0 44 1b 58 bd 69 d8 eb 3c 04 9f ee bb 8d 53 39 3d
       -0.052760378 0.028789716 -0.0072821397 0.045245696
0000f0 2c e9 b8 bd 49 94 66 bd 29 db 05 3d 0c 06 12 3c
       -0.09028849 -0.05629376 0.03267971 0.0089125745
000100 38 3a 43 3d 5f 74 2c 3c 8a 82 c3 3d 6e f6 b9 bd
       0.047662944 0.010525792 0.09546383 -0.09080206
000110 6c aa 9a 3d 19 19 23 3d 1c 9a fa bc 11 6d 85 bd
       0.07552037 0.039818857 -0.030591063 -0.065149434
000120 6a 83 d1 3d d1 d3 85 bd 15 5a 9d bd 81 30 03 bd
       0.10230143 -0.065345414 -0.076831974 -0.03202868
000130 70 ab 31 3d 1a f7 13 3c 76 29 86 bd 27 87 4d 3d
       0.043376386 0.009031082 -0.06550877 0.05017772
000140 0f ae 0f 3d 31 eb b9 3c fb 7c c5 bd 25 ba 2a bd
       0.035078105 0.022695156 -0.09642979 -0.041681428
000150 f8 48 12 bd 0f 00 4b bd 02 f7 57 bd e4 c5 d4 3c
       -0.03571412 -0.049560603 -0.0527258 0.025973268
000160 2c d7 36 3d 9e 6c 45 bd 0f 97 ec 3c 58 85 42 3d
       0.044638798 -0.04819929 0.028880624 0.047490448
000170 ee ae 8d 3d 1c 42 73 bd 78 f5 44 bd 20 19 23 bd
       0.06918131 -0.05938922 -0.04808566 -0.039818883
000180 e5 99 de bc 3d fc 71 3d 13 6c 97 bd 0a 55 4c 3d
       -0.027172992 0.059078444 -0.073936604 0.049885787
000190 de 4c c0 bb 5c 92 2c 3d 01 e5 5d 3d 1b 16 90 3d
       -0.0058685383 0.042131767 0.054173473 0.07035466
0001a0 54 3c e5 3c a8 14 63 bc e6 5f cc 3b 5c e5 a0 bd
       0.027982868 -0.013859905 0.006237018 -0.07856247
0001b0 e6 61 05 3d 55 16 0d bd 54 a8 65 3d 62 60 52 bd
       0.032564066 -0.034445126 0.056068733 -0.05136145
0001c0 75 5d 84 3d 3e 49 e7 bb fe 7f 85 3d 12 82 29 3d
       0.06463138 -0.0070582917 0.06518553 0.04138381
0001d0 c2 e2 55 3d 2c 70 a5 bc 9a c0 29 3d 07 15 1e bd
       0.052218206 -0.02019509 0.041443445 -0.038594272
0001e0 0d 1a a5 3d 00 63 11 3d fe 8e 61 3d b0 4b 0e bd
       0.080616094 0.035494804 0.05506801 -0.03474015
0001f0 70 31 1f 3c 12 e3 3c 3d d8 4b f0 3c 58 04 01 bd
       0.009716377 0.04611499 0.02933304 -0.031498283
000200 67 62 69 bd b6 2f aa bd 9c 68 17 3d 95 31 a5 bd
       -0.05697861 -0.083098814 0.036964998 -0.08066098
000210 38 eb a2 bc a4 d6 8b bc 2c be 13 3e b2 80 a6 bd
       -0.019887552 -0.017070122 0.14428014 -0.081300154
000220 1d 21 49 bb 86 43 97 bc 4a 3e 37 3c 23 0f 6a bd
       -0.0030689903 -0.018464815 0.011184284 -0.05714334
000230 97 3a 0d bd ca 61 26 bd 8a 25 cb 3c 0e 33 35 3c
       -0.034479704 -0.040620603 0.024798173 0.011059536
000240 9a d3 c3 bb 00 d5 31 3d 29 3a ae 3c 28 88 1e bc
       -0.0059761526 0.043416023 0.021267967 -0.009676017
000250 fb 0c a1 bd 68 8a e5 3c c0 ca b2 3d 00 8f 51 3c
       -0.07863804 0.028020099 0.08730078 0.0127904415
000260 f5 51 81 bd d5 e4 a5 bc 93 ee d8 bc 31 b0 ae bd
       -0.0631446 -0.020250717 -0.026480949 -0.085296996
000270 c7 e3 ff 3c 94 78 a9 3c 80 49 e3 3d 0d bb 42 3b
       0.031236542 0.020687379 0.110980034 0.0029713542
000280 d5 0c 11 bd 20 01 28 3c 34 07 c9 3b 48 74 b5 bd
       -0.03541263 0.0102541745 0.006134892 -0.088600695
000290 09 bf ce bb 21 97 6e bd 7a 7c 92 3d 46 ec 74 bd
       -0.0063093943 -0.058249597 0.07152648 -0.05979564
0002a0 de 0a 62 3d 88 f8 c5 bc 5e d8 04 3d a8 ca 3f 3d
       0.055186145 -0.02416636 0.032432906 0.046824127
0002b0 2c 8a 5d bd 5d a9 0f bd dc cf c6 3c c0 31 78 bc
       -0.05408685 -0.035073627 0.024269037 -0.01514858
0002c0 3e 68 4b bc 65 03 4e 3d 96 d1 47 bd c3 0c c5 3d
       -0.01241499 0.050296206 -0.04878386 0.09621575
0002d0 2b 74 94 bc be 27 d3 3c ec 64 0c bc a9 a2 47 bd
       -0.0181218 0.025775786 -0.0085689835 -0.04873911
0002e0 1e a6 38 3c 39 03 bf 3c 35 2b 47 bd 87 4c 7d 3d
       0.011270074 0.023316966 -0.04862519 0.06184056
0002f0 b5 10 0f bd 11 d5 cd 3c e4 c7 de 3c 6b 64 84 bd
       -0.034928042 0.025126012 0.027194925 -0.06464466
000300 21 35 6d 3d 08 87 0b bd d6 6b 1f 3c 0f a2 21 bd
       0.057911996 -0.034064323 0.0097303 -0.03946119
000310 8b 40 95 bd 7d 50 07 3d fe 94 ea bc 08 8e 20 3d
       -0.07287701 0.033035744 -0.028635498 0.03919795
000320 71 7f 12 3d 92 d2 f5 3c 3c 7b c0 3c c6 ca ce 3c
       0.03576607 0.030007634 0.023496263 0.025243174
000330 b4 33 62 bd cf 61 57 bc 89 6a 19 bd 30 f5 7f 3d
       -0.05522509 -0.013145878 -0.037455115 0.06248969
000340 a6 f2 ee 3c fc b0 eb bb f9 0d 8c bd 78 10 7e bd
       0.029168438 -0.007192729 -0.068386026 -0.062027425
000350 4b ad 8a bd e6 c3 20 3d b4 43 63 3d 94 e9 9b bd
       -0.06771334 0.039249323 0.05548449 -0.07612911
000360 db 4b 87 bd 2d d7 4a 3d 88 8f 25 3d a0 10 80 bd
       -0.06606265 0.049521614 0.040420085 -0.06253171
000370 41 23 cf bb ab 3e 05 3d 96 c4 46 3d 8f a6 74 bc
       -0.0063213413 0.032530468 0.048527323 -0.014932289
000380 2f 08 d1 bc 77 69 07 bd 38 15 cd bc ce 2a 25 bd
       -0.025516598 -0.033059563 -0.025034532 -0.040324025
000390 65 a4 16 bd 09 0b 2e 3d 42 d2 26 3c 70 63 ce 3c
       -0.036777873 0.042490993 0.010181965 0.0251939
0003a0 60 ce 4b bd 6d 81 2b 3b 1f 74 91 3d 31 a0 04 3d
       -0.04975736 0.0026169673 0.071022265 0.032379333
0003b0 48 4c 89 bc 88 6c 2c bd 3f d7 99 3d 1f d7 1a bd
       -0.016760007 -0.04209569 0.07511758 -0.03780281
0003c0 0c 1b 12 bd 9a f7 02 bc 21 a5 1e bc e2 54 7c bc
       -0.035670325 -0.007993603 -0.0096829245 -0.015401097
0003d0 c2 c7 b9 bc 69 f2 52 bd de 45 27 3c 22 71 a1 3c
       -0.02267826 -0.05150071 0.010209529 0.019707266
0003e0 a1 6e 90 bd e3 6c 5a 3c 33 95 97 3c f1 06 5f bd
       -0.07052351 0.013331625 0.01850376 -0.05444998
0003f0 ca 9c 54 3d 7d 89 17 3d 18 f6 bf 3c 46 56 e6 bc
       0.05190734 0.036996353 0.023432776 -0.02811731

bias f4 [64]
000000 8a 8a 50 3d 31 fc df 3c 27 0f d7 bc 06 f0 fa 3c
       0.05091337 0.027341934 -0.026252342 0.03063203
000010 91 23 bc 3d b8 79 bc 3d 72 80 71 bd 20 0b 45 bd
       0.09186471 0.092029035 -0.058960386 -0.048106313
000020 2d 2a 95 3d b2 5d 37 bd 22 f5 5c 3d 3f 1f 9b 3d
       0.07283435 -0.04476709 0.053944714 0.07574319
000030 90 ec 71 3d ae c4 a8 3d 2e 04 a5 3d 0c 98 b5 3d
       0.059063494 0.08240639 0.08057438 0.08866891
000040 26 be de 3c 12 64 cf 3c 53 84 e5 3d 4d fe 7c bc
       0.02719028 0.025316272 0.112068795 -0.015441489
000050 de 1a aa 3b ad 6f 24 3d cf 01 a9 bc 10 96 fa 3c
       0.005191191 0.040145565 -0.020630745 0.030589134
000060 c2 3d 83 3d 01 7c 2c bd 9a fe ae bc 7f 3a 1e bd
       0.06408264 -0.042110447 -0.021361638 -0.038630005
000070 96 57 b2 3d 32 97 a6 3c 29 ce 71 bc 0e 0d c8 bc
       0.08708112 0.020335767 -0.014758625 -0.024420287
000080 6f 76 99 3d c2 2e 73 3b 0a a7 d7 3d b9 40 2c 3c
       0.074932925 0.0037106727 0.10529907 0.010513478
000090 5e 82 47 3d b4 08 08 3d b4 43 01 3e 67 12 a6 3c
       0.048708312 0.033211425 0.12623483 0.020272447
0000a0 3b 75 e4 3d b9 e0 fb 3b df f3 37 3d 59 99 b1 bc
       0.111551724 0.007686701 0.044910308 -0.021679567
0000b0 8a fb a3 bc 38 90 00 bd e3 8e 80 bc 4b b2 96 3d
       -0.020017404 -0.031387538 -0.015693134 0.073582254
0000c0 f4 2a 4a 3d d0 e4 58 bc 00 7b a5 3d ea d3 0b 3d
       0.04935737 -0.013238147 0.08080101 0.034137644
0000d0 7e 31 a2 3d b5 0f 8c 3d e3 9e c7 3d 34 e4 9e bc
       0.07919596 0.068389334 0.09747102 -0.019395925
0000e0 e9 52 00 3e 4c fb 6d bd 80 e7 df 3c 00 f4 3e bc
       0.12531628 -0.058100984 0.027332067 -0.011654854
0000f0 ff bf 96 3d 49 db 05 3d 92 f5 2f bd 76 02 37 3d
       0.07360839 0.03267983 -0.042958803 0.04468008

weight f4 [128, 64]
000000 c6 96 07 be dd d5 f0 3d 53 e5 1b bd 96 0c e3 bd
       -0.13241109 0.11759541 -0.038060497 -0.11086385
000010 37 e5 8b bd 28 9a e3 3d 89 25 f3 3c a8 1b 06 3d
       -0.06830829 0.11113387 0.029680984 0.03274122
000020 b7 38 e8 3d a9 f4 1a bd a7 dc 5c 3d ef 22 ca 3d
       0.113389425 -0.037830982 0.053921368 0.09869944
000030 6e 4b 9f 3a c8 0f 2b 3e 3f 86 89 bc 81 cc e5 bd
       0.0012153217 0.16705239 -0.016787646 -0.11220647
000040 dc 0a 1e be 49 49 1d be b4 5e c3 bd 7c 75 cd bc
       -0.1543383 -0.15359987 -0.095395476 -0.025080435
000050 12 84 09 3d c0 74 db bd ac 06 bc 3b 51 56 e5 3d
       0.033573218 -0.10715628 0.0057381 0.11198104
000060 bb 96 a3 bc c7 2b 8f 3d 25 83 df 3c a0 da 99 3d
       -0.019969335 0.06990772 0.027284214 0.075124025
000070 ba 32 09 3e f0 4f 80 bd 1d 2d 90 bd fd 57 36 bd
       0.13398257 -0.06265247 -0.07039855 -0.044517506
000080 22 f7 eb bd b6 f5 c0 bd bf fb 08 be be b9 b5 3d
       -0.11521746 -0.09421866 -0.13377284 0.08873318
000090 14 af ec 3c 5c ab 23 3e 07 72 96 bd d6 0b 16 3d
       0.028892078 0.15983337 -0.07345968 0.03663238
0000a0 ec 2c 38 be 48 7f 76 3d a6 f3 7d 3c 83 13 ee 3c
       -0.17985886 0.06017998 0.015499985 0.029062038
0000b0 a0 b2 a6 bd 7e 76 91 3d 02 18 3d bd cc 33 0f be
       -0.08139539 0.07102679 -0.046165474 -0.13984603
0000c0 0b e3 57 3b bf b0 aa bc 24 8c 14 be 0e 65 e2 3d
       0.0032941725 -0.020836232 -0.14506584 0.11054431
0000d0 46 58 65 3d b6 69 aa 3d eb 4d a0 bd 1c ce b8 3d
       0.055992387 0.08320944 -0.07827362 0.09023687
0000e0 75 6c fb bd e2 21 c1 3d ae 89 36 bd 1f 4d 07 bd
       -0.12276546 0.09430291 -0.044564895 -0.033032533
0000f0 46 7c af bd e8 7f 6c bd b6 51 87 3b 5a 98 49 bd
       -0.08568625 -0.05773917 0.0041296137 -0.04921756
000100 63 5a a2 3d d0 4f de bd bb 62 a7 bd 52 a9 7d bd
       0.07927396 -0.10855067 -0.08173128 -0.061929055
000110 de f8 e5 bd 00 2d 8d bd be 59 aa 3d 06 35 d2 3c
       -0.11229108 -0.06893349 0.08317898 0.02566005
000120 83 a6 d6 bd 3f 49 e2 bd a0 d6 58 3d 90 42 2d be
       -0.10480978 -0.11049127 0.052939057 -0.16919923
000130 9e 6b 9d 3d 3e f7 bb 3d 48 4b 27 be 14 37 30 3d
       0.07686542 0.09178017 -0.16337311 0.043021277
000140 38 ad 5d bd f1 ac 30 bd f1 3b 6e bc 25 39 d2 bd
       -0.054120272 -0.04313368 -0.014540658 -0.10264806
000150 3d 8e 05 be 79 15 55 3d 4d 4f 6d bd 7c 4c c5 bd
       -0.13042541 0.05202243 -0.057936955 -0.09633729
000160 c5 25 73 ba c0 75 12 ba cf 4d 6b 3d 06 e7 89 3d
       -0.00092753425 -0.0005587004 0.05744725 0.06733517
000170 76 d9 e6 bd 56 22 ae bd 75 9d f9 3d 51 f9 e8 bd
       -0.11271946 -0.08502643 0.12188236 -0.11375678
000180 d1 b7 d0 3d 51 73 e1 bd 7f ba 59 3d 60 c8 a0 3c
       0.1019131 -0.11008323 0.053156372 0.019626796
000190 3a 0b 47 bd df d3 65 bd 18 7a 14 3d d5 14 c2 bc
       -0.04859469 -0.05611026 0.03624925 -0.023691574
0001a0 55 b5 df 3b 13 55 03 3e e4 18 c5 bd d0 e2 ed bc
       0.0068270364 0.12825422 -0.09623888 -0.029038817
0001b0 80 91 75 bd 19 3a 7e bd c7 ce 00 bc 3b ba 20 bd
       -0.059953213 -0.062067125 -0.0078618 -0.039240103
0001c0 e2 f6 bd bb 56 8d 2e bd 0c 4d 17 bd 35 0d 7f 3d
       -0.005797253 -0.042615257 -0.036938712 0.062268455
0001d0 91 17 c6 3c 58 bf 6b 3d 28 c3 a1 bd f2 3c 04 3d
       0.02418116 0.057555526 -0.07898551 0.032284684
0001e0 27 00 e4 bd 1b 57 62 3c 5c 80 57 bd b5 be 89 bd
       -0.111328416 0.013814713 -0.052612647 -0.067258276
0001f0 57 61 77 3b 86 52 94 3d 89 40 e5 3d e6 f9 b7 bd
       0.0037747228 0.072423026 0.1119395 -0.08983211
000200 21 f3 f1 bd 8b 63 49 bd c6 c1 46 3d 6b 22 ca 3d
       -0.11813951 -0.049167197 0.04852464 0.09869846
000210 57 5a 94 3d 0f ef 26 bc 64 78 91 3c 82 0b de 3d
       0.072437935 -0.010188832 0.017757602 0.10842039
000220 d3 31 6d bd 64 07 1b 3d c2 f3 82 bd 28 1d b0 3c
       -0.057908844 0.037848845 -0.06394149 0.021498278
000230 4a 81 af bb 49 27 9e 3b 9d b4 15 3e a4 b1 2e bd
       -0.0053559886 0.0048264605 0.1461968 -0.04264988
000240 b9 ce b2 bc 0b 08 39 bd f2 c8 0d bd f9 30 b5 3d
       -0.021827089 -0.045173686 -0.034615465 0.088472314
000250 58 95 1a 3e 23 f8 41 3d 65 8f 89 bc 77 50 7b 3d
       0.15096033 0.047355782 -0.016792009 0.061356034
000260 2e eb 8f bd 5c 19 9b bd 19 87 90 3d 44 fb ed bb
       -0.07027279 -0.07573196 0.07057018 -0.007262619
000270 57 94 eb bd 70 c0 b3 bd 63 28 89 bd 8a 04 04 3e
       -0.11502903 -0.08776939 -0.06697156 0.12892357
000280 8a a7 40 3d c3 bc 48 bd 8b 5a 49 3c 60 94 46 3d
       0.047034778 -0.049008142 0.0122896535 0.048481345
000290 f4 b9 a5 3c fc 7a a6 3c 76 9f 61 bd 16 bb dd 3d
       0.02023027 0.020322315 -0.055083714 0.108266994
0002a0 00 6e 3b 3e 37 37 df bd 11 74 7b 3d 2e d9 cc 3d
       0.1830368 -0.10899203 0.061389986 0.10002361
0002b0 47 b2 fd bd d2 2e 47 bd 35 ca a6 bd 3b b2 dc 3d
       -0.12387519 -0.048628636 -0.08144037 0.10776182
0002c0 a9 83 05 3e df 05 ca bc 9e d8 6d bd 4b 3a 97 3d
       0.13038506 -0.024661003 -0.05806791 0.073841654
0002d0 a2 1b a3 3c 8a 32 03 3c 42 6e 58 bd 85 32 2e bd
       0.019910637 0.008007655 -0.052839525 -0.042528648
0002e0 30 d2 e1 3d bd a2 97 3d a1 b5 11 bd 95 56 ad 3c
       0.11026418 0.07404087 -0.035573605 0.02115945
0002f0 ab 93 e5 3c ae 2b 66 3c a0 00 b4 3d fa f1 d6 3d
       0.028024515 0.0140485 0.08789182 0.10495372
000300 26 6b 8b bd 1f 61 75 3d ad d7 92 3d 02 bf b1 bd
       -0.06807546 0.059907075 0.07170043 -0.0867901
000310 20 71 30 3c 8a 00 64 3d 72 0d 82 bc 46 77 c8 3c
       0.010769159 0.055664577 -0.015875552 0.024470937
000320 4b ea 5b 3d 47 85 e3 bd 95 a3 2e bd be 26 9e 3d
       0.053690236 -0.11109405 -0.042636473 0.07722233
000330 d6 a0 8e 3d 37 64 e4 bd f6 de 21 3e 54 5f 9a bc
       0.06964271 -0.11151927 0.15807709 -0.018844284
000340 1e 51 f0 3d d2 74 dc 3b aa 7f d5 3d c3 77 e3 3d
       0.11734222 0.0067277933 0.104247406 0.11106827
000350 82 de e7 3d 29 d7 d2 bd 04 d5 e3 3b 06 74 da bd
       0.11321737 -0.10294945 0.0069528837 -0.10666661
000360 4e b7 e7 3c 2f f0 62 3b 34 b3 12 3d 5d 54 53 bc
       0.028285649 0.0034628024 0.035815433 -0.012898532
000370 5e 5d 3f bc 1d 05 2a 3e 00 8b 69 3d cb 0a ca bb
       -0.011679975 0.16603513 0.057017326 -0.0061658374
000380 92 d4 12 3d 40 cc 48 bd d0 85 44 3e aa d6 47 bc
       0.035847254 -0.049022913 0.1919167 -0.012197176
000390 94 7e 08 3d b6 44 b7 bd 7f e6 1c 3e d8 04 50 bc
       0.03332384 -0.089486524 0.15322302 -0.012696467
0003a0 c6 fd 25 3e aa 92 03 be 08 74 b8 bd 30 a6 ec 3c
       0.16210088 -0.12848917 -0.09006506 0.028887838
0003b0 d1 b5 e0 bd 52 d0 e8 3d 6e da f6 3d a9 12 40 3e
       -0.10972179 0.11367859 0.12053381 0.18757118
0003c0 91 f7 d1 3c c4 be ee bd d5 75 8d 3d 92 ad 9c bd
       0.025630744 -0.116574794 0.0690724 -0.076502934
0003d0 2d 6a cf 3d 12 f7 d6 bd 4c 3a 48 3b b8 23 bf bd
       0.10127673 -0.10496344 0.0030552326 -0.09332985
0003e0 68 74 8e 3a 65 50 c1 3c fb 45 30 bd 4e f8 f8 3d
       0.0010868432 0.023597905 -0.04303549 0.12156735
0003f0 08 8f f0 bd c0 3f 24 bd 24 8e b8 bd f6 8e 2a 3e
       -0.11746031 -0.04009986 -0.09011486 0.16656098

bias f4 [128]
000000 dc 7d 11 be e2 84 cc bd 34 b6 54 3d 18 f7 2a 3e
       -0.14208168 -0.09986283 0.051931575 0.16695821
000010 d1 84 c3 bd a4 09 fe bc f2 37 0d 3e 70 4a e3 bc
       -0.09546817 -0.031010456 0.13790873 -0.027745456
000020 13 4c 00 3e 85 50 9f 3d 87 79 77 3c ba 3d 21 3d
       0.1252902 0.0777903 0.015104658 0.039365508
000030 e7 1c df 3c c9 31 03 3e 6a 6a e3 bd 95 92 b1 bd
       0.027235461 0.1281196 -0.11104281 -0.086705364
000040 63 65 a8 3c 7b 07 08 be d7 59 95 bd 81 05 c3 bd
       0.020556157 -0.13284104 -0.07292526 -0.09522534
000050 1c b1 89 bb 2a 68 da 3d 66 26 2b 3d e1 00 ac 3d
       -0.0042020213 0.10664399 0.041784666 0.08398605
000060 82 9b d4 bd 68 45 5b 3d 9d e4 62 3d bb d2 f3 bd
       -0.10381223 0.053532988 0.055393804 -0.11905428
000070 3c 65 d1 3d 57 70 10 3d 74 08 c8 3d 04 28 57 3d
       0.10224387 0.035263386 0.09767237 0.052528396
000080 63 90 04 3e 89 3d 6c 3d f6 91 6d bd 9e 19 97 3d
       0.12945704 0.057675872 -0.058000527 0.07377933
000090 61 35 96 bd 18 ba a1 bd 4e 25 60 bd 98 17 e0 3b
       -0.073344 -0.07896823 -0.054723077 0.00683875
0000a0 73 d4 cb 3d 94 80 1a 3e 76 ca 4f bc 56 a3 f7 3c
       0.09952631 0.15088111 -0.012682548 0.030229252
0000b0 a9 03 b5 3d 36 d3 f6 bc 43 3b 41 3d 0c 2c 0f bd
       0.08838589 -0.03013001 0.047175657 -0.034954116
0000c0 ce 96 cb 3c af e2 01 3e d0 d7 cc bd ef 9c df 3d
       0.024852183 0.12684129 -0.100021005 0.109186046
0000d0 71 be 07 3e 55 c4 dd bd 39 45 11 bd 91 2f 00 3d
       0.13256241 -0.10828463 -0.035466406 0.031295363
0000e0 fc 68 73 bc c5 25 d7 bd dc 63 f3 3c 5c 70 20 3c
       -0.014856573 -0.10505251 0.029710703 0.009792414
0000f0 95 03 f3 bd 86 45 ea 3d 02 65 20 3c 6c f6 47 bc
       -0.118659176 0.11439042 0.009789707 -0.012204748
000100 06 cb 9b bd ff 53 0e be ca 57 05 be c7 82 79 bd
       -0.07607083 -0.1389923 -0.1302177 -0.060915735
000110 40 98 b7 bc 66 a4 91 bd 7c 76 25 bd bc 23 b5 3d
       -0.022411466 -0.07111435 -0.0403962 0.088447064
000120 15 47 b2 3d 41 d0 a0 bd 99 73 63 3d ba 78 6a 3c
       0.08704964 -0.07852221 0.055530164 0.01431101
000130 f6 6d 7e bd 22 76 58 3d 62 63 11 3e 5a 47 86 3d
       -0.062116586 0.052847035 0.14198068 0.06556578
000140 63 19 ed 3d fd 96 7d bd 02 48 e8 ba 83 72 fd 3d
       0.11577108 -0.06191157 -0.0017721655 0.12375357
000150 82 24 af 3d 49 2e c7 bd e6 e1 8d bc 32 6a 94 3c
       0.08551885 -0.09725625 -0.01731963 0.018117044
000160 13 aa a8 3d fa ab a8 3d 30 2b 29 be d9 e9 cb bc
       0.08235564 0.08235927 -0.16520381 -0.02489178
000170 28 8c e3 3d 64 7a f6 3d f3 14 ba bc b7 29 8d 3c
       0.11110717 0.12035063 -0.022715067 0.017231805
000180 19 1d 14 be e4 7f 84 3d 0c d0 74 bc 1f 56 c3 bc
       -0.14464225 0.06469706 -0.01494218 -0.023844777
000190 f8 83 41 bd 77 37 ea bd d5 2d 8b bb 5f 33 d3 3d
       -0.047244996 -0.1143636 -0.004247407 0.10312533
0001a0 91 e2 eb bd 4d 57 ba 3c b1 f2 e1 bd ea 91 00 3d
       -0.115178235 0.022746706 -0.11032618 0.031389154
0001b0 ec 91 cb bd 19 60 40 3d 9d 1f 18 3a ca 10 44 3d
       -0.09939942 0.046966646 0.00058030506 0.047867574
0001c0 e4 be 12 3e 92 3e f2 3b ac f7 e1 bd 89 57 80 3c
       0.14330631 0.007392713 -0.11033568 0.01566674
0001d0 6c 6c 8b 3b 24 7a 6a 3d b7 01 f6 bd 74 cc cd 3c
       0.0042548683 0.05724539 -0.12012046 0.025121905
0001e0 08 6c 4b 3d 65 f8 da 3d cb cb ed bd 40 1d 25 be
       0.049663574 0.10691909 -0.11611136 -0.16124439
0001f0 11 7b 09 bd 5c ba 84 3c f5 1e 56 bc d3 5f 42 bd
       -0.03356463 0.016202144 -0.013068904 -0.047454666
